s2net-emg/saved/modeldictPSDNoDelta.pt (torch, 223183 bytes, 6 tensors)

layers.0.w f4 [64, 1, 4, 3]
000000 6f b9 fa bc 92 48 ab 3d 6d 4a d1 3d 20 e9 9e bc
       -0.030606 0.08363451 0.10219274 -0.019398272
000010 09 5a aa bc 6a 1c 8a bb da c5 93 bd 6f d5 fd bb
       -0.020794885 -0.004214813 -0.072154716 -0.0077463905
000020 f8 38 3e bd 09 1f 1b bd cd 36 32 3c bb 3d 02 3c
       -0.04644105 -0.037871394 0.010877323 0.007949288
000030 ab b7 8d bc f1 59 d5 bc c8 c9 ab 3d 84 aa 34 3b
       -0.017299494 -0.026043864 0.08388096 0.0027567456
000040 bf b9 9c 3d 22 6f 06 3d f0 00 68 bd 98 c2 5e 3c
       0.07652616 0.03282083 -0.05664152 0.013596199
000050 0b 06 5b bd a6 5a 9e 3b fe c1 65 3d ff 69 9a 3c
       -0.05347256 0.0048325835 0.05609321 0.018849371
000060 7d 14 8f bc 55 4a c9 39 f3 00 4c 3d 11 53 e7 3b
       -0.017465824 0.0003839309 0.049805593 0.007059463
000070 0e 5c d1 bc 1c fc bc bc 57 b7 7b 3c 85 19 89 bd
       -0.02555659 -0.023069434 0.015363536 -0.066943206
000080 cd 3a 39 3d 60 c9 14 bd 52 e0 23 bd 1b da ab bc
       0.045222092 -0.03632486 -0.04000885 -0.020978024
000090 7e 3e 9a bb 5b 03 52 bc 95 db cf bb ce 67 b0 bc
       -0.0047071567 -0.012818183 -0.006343315 -0.021533873
0000a0 08 eb 47 39 e6 d5 23 bb 37 a5 f4 ba de d3 ee 3c
       0.00019065675 -0.002499932 -0.001866496 0.02915376
0000b0 29 9c f1 3b d2 16 56 bd f5 30 96 3d 7d 83 38 bd
       0.007373352 -0.052267857 0.073335566 -0.045047272
0000c0 07 72 04 bd c5 06 6a 3d 96 19 29 bb 22 db 9f 3d
       -0.032335307 0.057135362 -0.0025802604 0.07805468
0000d0 1d b7 2d bd f7 08 ab bc 5f 9d ab bc 51 80 25 bd
       -0.04241096 -0.020878298 -0.020949064 -0.040405575
0000e0 53 18 2e 3d e2 ef 73 bd c9 22 51 bb a3 e5 aa 3c
       0.042503666 -0.059554942 -0.0031911603 0.020861452
0000f0 a2 31 cd 3c 34 f0 3f bd 03 a1 10 3d 44 67 c8 3b
       0.02504808 -0.046859935 0.035309803 0.006115826
000100 9c 98 09 3d 9f 98 f7 3c a2 cb ac 3a a9 96 3f bc
       0.033592805 0.030224143 0.0013183246 -0.011693635
000110 7a c2 df bc c2 28 55 3c f8 62 80 bc 69 74 0c 3d
       -0.027314413 0.013010206 -0.015672192 0.034290705
000120 ee a8 aa 3d 98 ab 80 3d 3e de 3b bd df 75 02 3d
       0.08333002 0.06282729 -0.045866244 0.031850692
000130 be 0a 2e 3b 26 e1 84 bc 7e c8 83 3c 96 0a 18 3d
       0.0026556696 -0.01622064 0.016086813 0.03711947
000140 41 16 a8 bd 7f 2b ba 3b 63 b9 3c 3c e0 e5 59 bc
       -0.082073696 0.0056814547 0.011518809 -0.013299435
000150 2d de 08 3c 82 eb b1 bc 91 75 88 3d d9 03 ec bc
       0.008353752 -0.021718744 0.06663049 -0.028810428
000160 b0 ff c1 bc a6 d1 c4 bc fc ab 25 3c 54 4c 0c bd
       -0.023681492 -0.02402575 0.010111805 -0.03425248
000170 45 e6 ea 3c 39 2d 1f bd 49 6d d7 bc 79 49 a5 bc
       0.028674254 -0.038861487 -0.026297228 -0.020176636
000180 98 5d 43 bd b0 7e 23 bd d8 8f cf bb ed 2b 11 bd
       -0.04769668 -0.03991574 -0.006334286 -0.03544228
000190 75 4d 42 3d 7d 9f 21 ba 44 be 11 3c 46 45 51 3b
       0.04743715 -0.0006165428 0.0088954605 0.003193216
0001a0 64 f0 77 bd 8f e5 8f 3b e3 18 b5 3d cf 4b 9c 3c
       -0.06053199 0.004391379 0.088426374 0.019079117
0001b0 05 59 88 bd df 46 a1 bc 58 11 31 bd 4b 5f 8d 3b
       -0.06657604 -0.019687114 -0.04322943 0.0043143383
0001c0 f9 85 02 3e b1 33 12 3d ca 76 bf 3c 73 dd ee bc
       0.12746419 0.035693828 0.023372073 -0.02915833
0001d0 92 4a 03 bd 0e ce 2f 3c 33 c3 1a 3d fa b8 fd bc
       -0.032053538 0.01073028 0.037783813 -0.030971993
0001e0 03 c9 04 bc 4a 49 8f 3c 15 23 6e bd ac 69 02 bd
       -0.008104566 0.017491002 -0.058138926 -0.031839058
0001f0 19 d5 bc bc e5 6f 4e bd 28 19 42 bd e3 27 eb bc
       -0.023050832 -0.05039968 -0.047387272 -0.028705543
000200 ba e1 ef bc 03 34 45 3c ee 3e df 3b 97 1c 58 bc
       -0.02928244 0.012036326 0.0068129217 -0.01319041
000210 ec 70 5f bd 64 c5 41 3b 62 4a 20 bc 4b 08 a8 bd
       -0.05455105 0.0029567117 -0.009783359 -0.08204707
000220 49 ae 1b 3d 25 37 4f bd cf e6 13 bd 49 46 06 3d
       0.03800801 -0.0505897 -0.036108788 0.032781873
000230 cf fd 43 bd ab 11 e7 bb d3 0b e9 3c 1f 73 d9 bc
       -0.047849473 -0.0070516667 0.028448021 -0.026544152
000240 78 ec 5e bc 38 ab 6a 3d c7 83 1c bd 7b cb 68 bc
       -0.013606183 0.057292193 -0.03821161 -0.01420867
000250 2e e9 26 3d 1d 8b 33 3d 25 8a 45 bc 4d 1c 88 3d
       0.04074972 0.04383384 -0.012056862 0.06646023
000260 bd a7 94 3c 5a cb 2a bd 2e 21 a2 bc 73 42 d5 3c
       0.01814639 -0.041697837 -0.019791212 0.026032662
000270 99 7e 24 bd 70 0d 1b bd 55 98 c5 bc 50 00 04 bd
       -0.040159795 -0.037854612 -0.02412049 -0.03222686
000280 73 54 bf bb a4 51 88 3d bf b1 cc 3c 27 03 ad bc
       -0.0058389246 0.06656197 0.0249871 -0.021119667
000290 32 58 86 3d 35 a6 3b bc db 42 2e 3d 91 30 4e 3d
       0.06559791 -0.011453201 0.042544227 0.050339285
0002a0 55 b0 08 3e 43 90 4a bb 44 76 0d 3d 68 20 aa 3b
       0.13348515 -0.003090874 0.034536615 0.0051918514
0002b0 bb f2 0b 3d 75 bf 10 3c a6 4d 19 bc 02 a9 b1 3b
       0.034167033 0.008834709 -0.009356892 0.0054217586
0002c0 08 b3 6e bc ec 5e 4d 3c 64 31 12 3d 85 75 7e bd
       -0.014569052 0.012534838 0.035691634 -0.062123794
0002d0 4a f2 66 3c 21 c2 ab 3c f2 c8 95 3c 59 c2 88 3c
       0.014095852 0.020966591 0.018284295 0.016694235
0002e0 68 ea 39 bc 84 4b 19 bd c8 2f b5 3c eb 0c 80 3c
       -0.011347391 -0.037425533 0.02211751 0.01563116
0002f0 c3 80 4e 3c 32 98 83 3c 43 4d cd bb 04 e8 bd 3c
       0.012603941 0.016063783 -0.006265314 0.023181923
000300 38 15 be 3c ea b9 58 bc 50 d3 8d bc 61 a5 90 bd
       0.023203477 -0.013227919 -0.017312676 -0.070627935
000310 14 4e 3e 3d e0 02 69 bb e8 58 94 3d 22 31 0f 3b
       0.04646118 -0.0035554692 0.0724352 0.0021849354
000320 df 94 15 bd b3 23 29 3d 71 8f 1c bd 24 f9 25 3c
       -0.036518928 0.04129381 -0.038222734 0.010130201
000330 c0 15 2d 3d f1 c5 56 bc 94 00 02 3d fc c0 e7 3c
       0.04225707 -0.013108716 0.031738833 0.028290264
000340 cc 25 bc 3b c4 5d 96 3c ba 00 23 3d 0e f9 77 3c
       0.0057418104 0.018355258 0.039795615 0.015135063
000350 e0 0b 0f bd 43 96 ab 3c 11 1d 4f 3d 77 f3 8e 3c
       -0.034923434 0.020945674 0.05056483 0.017450077
000360 ad e9 d5 3b 51 a5 c6 3d 3e 85 e6 3c df 69 ca 3b
       0.0065281005 0.096995 0.028139707 0.0061771716
000370 77 b0 c6 3b 51 f8 d6 bc 01 6a 68 bd 08 b6 ec 3c
       0.0060635167 -0.026241453 -0.05674172 0.028895393
000380 34 44 f2 bc 42 b4 5d 3d 30 5c cd 3c 29 38 29 bd
       -0.029573537 0.054126985 0.025068372 -0.041313324
000390 17 28 b3 3c 9c 19 8f 3c 4a 7e f1 3c c8 dc 6a bd
       0.021869702 0.017468266 0.029479165 -0.05733946
0003a0 53 25 dc bc 6b 76 69 38 88 8c 56 ba 3a 5a 14 3d
       -0.026873266 5.5661814e-05 -0.0008184393 0.03621886
0003b0 fe ce b5 bd 79 d8 a8 3a 2b 6d 65 bd 3d 59 45 3d
       -0.08877371 0.0012881897 -0.056012314 0.048180807
0003c0 84 41 55 3d 40 fc d7 bc b3 71 06 3d 2d 28 8e 3c
       0.052064434 -0.0263654 0.032823276 0.017353142
0003d0 45 5b 40 bc 1e dd d3 bc 28 e3 82 bd 94 d2 04 3d
       -0.01174051 -0.025862273 -0.06390983 0.032427385
0003e0 71 a1 d4 bc 96 6b 7e 3c 84 07 97 bc 34 dd ee 3d
       -0.025955888 0.01552858 -0.0184362 0.11663285
0003f0 52 28 d3 3c 77 63 d6 bd 34 af f4 3a a5 64 7c bd
       0.025776062 -0.1046819 0.0018667937 -0.06161942

layers.0.b f4 [64]
000000 c0 f6 7e 3f 08 63 80 3f f7 b6 7d 3f 91 74 80 3f
       0.9959526 1.0030222 0.9910731 1.0035573
000010 cc e2 80 3f eb 67 7f 3f 75 4b 7e 3f 6b 28 81 3f
       1.0069213 0.9976794 0.9933389 1.009046
000020 44 c9 80 3f 07 b9 7d 3f 48 54 7e 3f 6a 97 81 3f
       1.0061421 0.99110454 0.99347353 1.0124333
000030 f9 3c 81 3f 78 3b 7e 3f 47 03 83 3f 11 1b 7d 3f
       1.0096732 0.9930949 1.0235375 0.98869425
000040 1d 0e 80 3f a2 5f 7f 3f 8d a8 81 3f c5 49 83 3f
       1.0004307 0.997553 1.0129563 1.0256888
000050 5b 60 7e 3f 12 fd 80 3f 4a f9 7a 3f e1 59 80 3f
       0.99365777 1.0077231 0.98036635 1.0027429
000060 a5 77 81 3f d8 89 83 3f 00 75 7e 3f 6d 2a 7f 3f
       1.0114638 1.0276442 0.9939728 0.9967411
000070 82 42 7d 3f 07 25 80 3f d7 b5 7d 3f 3c fe 81 3f
       0.9892961 1.00113 0.9910559 1.0155711
000080 ec d7 7f 3f 92 58 7e 3f 7b 87 79 3f 97 88 7b 3f
       0.99938846 0.993539 0.9747235 0.98255295
000090 0b e9 7f 3f ad f5 80 3f f8 9e 80 3f 5b eb 7f 3f
       0.9996497 1.0074974 1.0048513 0.999685
0000a0 53 9e 80 3f c5 b3 80 3f 49 d4 7c 3f ca 0e 82 3f
       1.0048317 1.0054861 0.9876142 1.0160763
0000b0 dd a8 75 3f 38 49 7c 3f 06 9f 7f 3f b0 54 7e 3f
       0.9596079 0.9854922 0.99852026 0.9934797
0000c0 87 fa 7d 3f 07 33 81 3f a2 28 7e 3f c6 7d 80 3f
       0.992104 1.0093697 0.9928075 1.0038383
0000d0 a8 0d 82 3f 07 ec 80 3f 69 51 81 3f 8a 30 82 3f
       1.0160418 1.007203 1.010297 1.0171063
0000e0 a5 49 80 3f d4 7c 80 3f a5 ee 81 3f 1b 25 82 3f
       1.0022475 1.0038095 1.0150954 1.0167574
0000f0 cc ac 79 3f 25 fe 7b 3f ec 5d 7e 3f 3c 04 7e 3f
       0.9752929 0.9843467 0.99362063 0.9922521

layers.1.w f4 [64, 64, 4, 3]
000000 69 0d 3e 3b 22 64 32 bb ee af 6f bb a9 97 d3 3a
       0.0028999692 -0.0027220328 -0.0036573368 0.0016143221
000010 4f d2 ca bb b8 1a 82 bc 5f de e1 ba 13 54 6f 3b
       -0.0061896215 -0.015881881 -0.001723241 0.0036518618
000020 c0 bf cf 3a ea 67 d9 b9 9a 82 55 bb c7 fe 04 3b
       0.0015849993 -0.00041466887 -0.0032579065 0.002029346
000030 22 7b 00 bb 41 a1 d9 3b af e1 bb 3b c5 57 23 3c
       -0.0019604643 0.0066415374 0.0057336907 0.009969656
000040 11 07 d4 3a b6 6d 13 3b a9 5e 82 bb 28 a3 f9 ba
       0.0016176422 0.0022495813 -0.0039785695 -0.0019045817
000050 f9 95 68 bb 84 73 4c 3a a4 6b 89 3b 29 76 0e 3c
       -0.0035489781 0.00077991956 0.00419374 0.008695164
000060 3e 66 41 bb 0b 72 68 bc ef 42 5f bb 54 19 fc ba
       -0.0029510404 -0.014187346 -0.0034066995 -0.0019233623
000070 cc cf a2 bb c0 23 eb 3b cb bd ce 39 0d 73 ca 3b
       -0.004968619 0.0071758926 0.0003943279 0.006178266
000080 35 c8 ee 3b 8c 6c ac bb 03 9f 8b bb a2 39 0a bb
       0.00728705 -0.0052619632 -0.004260899 -0.002109148
000090 f6 75 8e 3b 97 4d 01 3c 7e 7a d7 b9 f2 94 26 3b
       0.004347558 0.007892034 -0.0004109926 0.0025418368
0000a0 ef fc 8e 3b 5a 24 92 3b a4 6e 0d ba aa 0b 12 bb
       0.004363648 0.0044599 -0.000539521 -0.0022284784
0000b0 6a 3c 62 3c df 68 08 bb 92 c4 3b bb 91 17 a4 3a
       0.013808349 -0.0020814461 -0.00286511 0.001251923
0000c0 ca 46 13 bb 5d f5 3e 3c d8 71 5f 3c 80 bb 00 3a
       -0.0022472613 0.011655179 0.013637982 0.0004910752
0000d0 db ce 48 bb 38 0e a2 3b d1 26 12 3b 90 62 b9 ba
       -0.0030640874 0.0049455427 0.0022300968 -0.0014143754
0000e0 a8 55 30 3b 2a 21 2a bc 16 86 b6 3b 7c 18 37 bb
       0.0026906524 -0.0103838835 0.0055701835 -0.0027938178
0000f0 95 58 36 3c b1 23 d8 b9 b3 bb 9c b9 c8 40 3a 3c
       0.011129518 -0.00041225323 -0.00029894485 0.011367984
000100 20 b6 25 bc ba b4 fa bb 32 41 86 39 6d 28 c7 3a
       -0.010114223 -0.007650939 0.00025607046 0.0015194543
000110 43 85 55 3b 5e 17 1e 3b ac 05 79 39 48 b1 c5 3b
       0.003258065 0.0024122815 0.00023748603 0.0060330965
000120 bf 3e b6 ba 5e e8 a6 bb 72 cf 02 bc 63 f8 85 b9
       -0.0013904198 -0.0050936183 -0.007984029 -0.000255528
000130 80 e2 d6 3b 0b 53 ac 38 ef e2 4c 3c 54 f4 41 3b
       0.0065577626 8.217067e-05 0.012505277 0.0029595094
000140 67 9d 8e 3a 06 a6 e6 bb b9 80 de 3b 82 ea 00 bc
       0.001088065 -0.0070388345 0.0067902473 -0.007868411
000150 2a 77 3f 3c a1 36 c5 3b 6c d6 1b 3c 3d cd 16 bc
       0.011686126 0.006018475 0.009511571 -0.009204206
000160 57 41 bd ba 73 66 89 bb 82 36 13 3c 74 d3 a5 3b
       -0.0014439028 -0.004193121 0.008985164 0.0050606076
000170 53 be 76 3b e5 aa 58 39 80 86 ca 3b 5e df ca bb
       0.0037650063 0.00020663028 0.0061805844 -0.006191178
000180 4c 83 a7 bb 4f 67 04 bb 6d 08 e0 ba c1 60 b3 3b
       -0.0051120874 -0.0020203178 -0.0017092355 0.0054741804
000190 b4 cb 0f bc f6 d0 b5 bc 90 7f d0 bb 5f 40 a3 ba
       -0.008776594 -0.022194367 -0.006362863 -0.0012455097
0001a0 ad d1 05 3b c0 24 fb bb 86 e3 9b 3b 67 0f c3 ba
       0.0020419166 -0.007664293 0.0047573475 -0.001488191
0001b0 f6 e8 57 bb 2c 48 80 bb 60 b5 b9 bb 00 28 2e bc
       -0.0032945252 -0.0039148536 -0.0056673735 -0.010629654
0001c0 fd 3d 2c 3b 05 5b 3a bb 9e 94 02 3b 4f 12 e7 3b
       0.0026282065 -0.00284356 0.0019925009 0.007051743
0001d0 dd 9d 9e 3b 6b d7 0d bb 84 c6 cb bb 27 e8 b7 3a
       0.004840596 -0.0021643292 -0.0062187333 0.0014030979
0001e0 e3 8f 15 bc 53 c1 ca 3a 88 0f 53 bb be a2 02 3b
       -0.009128544 0.0015468992 -0.0032205302 0.0019933428
0001f0 bb de dc bb dd 3a 0d bb 7f c1 f6 bb 38 99 91 bb
       -0.0067404187 -0.0021549978 -0.0075303908 -0.004443314
000200 3e 6e bb 38 44 b0 ec 3b 82 34 ae 3a b4 a2 03 3c
       8.937389e-05 0.007223161 0.0013290795 0.008034397
000210 b0 5e ad 38 98 e1 c4 bb 57 59 08 3b e2 51 a8 3a
       8.26692e-05 -0.006008338 0.0020805204 0.0012841786
000220 62 b0 89 3b 69 c4 71 bb 4f b6 07 3c 7f 9f 6e 3b
       0.0042019347 -0.0036890751 0.008283212 0.0036410985
000230 ba 50 a2 bb 4c 27 8c bb 01 12 58 bb d5 69 72 bc
       -0.004953471 -0.0042771455 -0.0032969716 -0.01479574
000240 ce 01 4c ba ee b3 a0 bb 86 2a 82 ba d3 a0 49 3a
       -0.00077822513 -0.004904262 -0.0009930886 0.0007691506
000250 26 23 1e 3c 99 82 ea bb d9 ed bc 3b ac b2 79 3c
       0.009651935 -0.0071566817 0.0057656583 0.015240353
000260 7d bc 75 bb f5 49 09 bb 78 97 08 3c 96 e8 b3 bb
       -0.003749638 -0.0020948623 0.008336894 -0.005490373
000270 61 90 4b bb d6 58 80 3c 4a 26 22 3a 86 53 de ba
       -0.0031061398 0.01566736 0.0006185515 -0.0016962148
000280 f3 84 bb ba 61 79 d6 3a fb 46 03 bc 70 43 b1 bb
       -0.001430659 0.0016363078 -0.0080125285 -0.0054096505
000290 b1 58 d4 3a 1d d3 f1 bb 3b fc 63 3b a5 b1 f3 3a
       0.0016200749 -0.007379903 0.0034787792 0.0018592371
0002a0 71 b9 cc b9 fa 36 46 3a 85 11 9a 3b 3e 4b cc 3b
       -0.00039048077 0.0007561293 0.0047017955 0.0062345555
0002b0 f5 c5 0f bb 8b a4 f8 ba 28 5f 8a 3b 37 02 98 bb
       -0.002193806 -0.0018969936 0.0042227693 -0.004638936
0002c0 7a ff 88 3a 17 db 2e 3a 5c 01 4c 3c 7d 34 ed 3a
       0.0010452115 0.000667022 0.012451496 0.0018097308
0002d0 c5 7d 1f 3b a8 90 a1 3b 17 6d 62 3b 76 4f 0d 3b
       0.002433644 0.0049305744 0.0034549886 0.0021562255
0002e0 7d a0 b1 3a b6 82 da ba ba 2c 61 3a 2e 85 81 3a
       0.0013551858 -0.0016671035 0.00085897336 0.000988161
0002f0 a8 d4 23 3b 26 60 7c bb 93 0b 1b bc 4d 32 ed 3b
       0.002499858 -0.0038509457 -0.009463209 0.0072386623
000300 b2 b8 7a bb c3 2b aa bc 90 72 07 3b df 99 dd ba
       -0.003825706 -0.02077282 0.002066765 -0.0016906819
000310 b4 08 b7 bb e0 4e 8f bb 3d b4 9a 3a f7 73 f2 ba
       -0.0055857543 -0.0043734163 0.0011802983 -0.0018497695
000320 5c fb 40 3b 34 33 1d 3b 6d ea c8 3b 0f 99 03 3a
       0.0029446697 0.0023986818 0.0061314614 0.0005020061
000330 51 77 32 3b 65 50 f1 3a 81 4c 35 3b 2d a9 1a 3b
       0.0027231763 0.00184108 0.0027664008 0.0023599372
000340 60 84 9e bb 3b b4 c4 3b 60 f5 93 ba b3 9f 80 3b
       -0.0048375577 0.0060029305 -0.0011288337 0.0039252876
000350 41 2a a2 3a 6f f5 fc bb d0 1d 02 3b 27 47 cd 3a
       0.0012372212 -0.0077196877 0.0019854195 0.0015661464
000360 6f 76 30 3c c3 0c d3 3b 45 8b 38 3b 41 73 68 3a
       0.010770424 0.0064407303 0.0028159183 0.0008867272
000370 ea ce 2b bb 70 df 06 bb ac 17 09 bc c5 d1 58 3b
       -0.002621586 -0.0020579956 -0.00836746 0.0033084017
000380 39 14 8c 3a 0e 79 75 bb ca b2 f4 3b 15 59 df 3b
       0.0010687179 -0.0037456187 0.0074676024 0.0068160393
000390 9b c8 01 3b 2a e8 96 3b aa 66 11 bc a4 0c 14 bc
       0.0019803408 0.004605313 -0.008874575 -0.009036217
0003a0 9f 9a 2a bc 1a 1a 8f 3b 9e 11 f4 3a 8f da 45 3b
       -0.010412841 0.004367125 0.0018620973 0.0030190086
0003b0 f6 a1 57 bc b0 c2 dc bb 8c cc df ba a0 17 9f 3b
       -0.013161173 -0.0067370757 -0.001707451 0.0048551112
0003c0 cd 21 5f bc 4c 10 31 bc bd 29 c7 3b 89 83 a5 bb
       -0.013618899 -0.010807108 0.0060779736 -0.0050510806
0003d0 87 ca 45 3b a2 84 66 bb a8 44 08 3b ca 4b 36 bb
       0.003018053 -0.003517427 0.0020792875 -0.002781617
0003e0 1d d1 b2 3b 03 6f cb 3a f0 5f 0e bc 0c 41 9d 3b
       0.005457057 0.0015520755 -0.0086898655 0.004799014
0003f0 ab 10 0d 3c 8a 1f 1c 3c 90 28 8c 3b 04 7c 2a 3b
       0.008609931 0.009529004 0.0042772964 0.002601386

layers.1.b f4 [64]
000000 00 db 7c 3f ce e7 80 3f ad f2 80 3f 4f 84 81 3f
       0.9877167 1.0070741 1.0074059 1.0118502
000010 5d 9f 84 3f ca ac 7a 3f 1e f9 7e 3f 4a 95 7f 3f
       1.0361134 0.97919905 0.9959887 0.9983717
000020 d2 a9 80 3f 79 99 7d 3f 38 58 80 3f eb c2 7d 3f
       1.0051825 0.99062306 1.0026922 0.99125546
000030 db 67 80 3f e8 89 81 3f 3b 56 80 3f 2e 5d 80 3f
       1.0031694 1.0120211 1.0026315 1.0028436
000040 ec 1d 7d 3f 5f a6 81 3f 74 c3 81 3f 42 cf 7e 3f
       0.9887378 1.0128897 1.0137773 0.99535
000050 10 2e 80 3f 39 ae 80 3f 67 45 7c 3f af fd 7c 3f
       1.0014057 1.0053169 0.985434 0.9882459
000060 77 29 7e 3f 07 bb 80 3f 0f b2 7e 3f 41 06 81 3f
       0.9928202 1.0057076 0.99490446 1.0080034
000070 ab f3 7d 3f b3 c3 7d 3f cc 23 81 3f dc 25 81 3f
       0.9919993 0.9912674 1.0089049 1.0089679
000080 1d 24 7e 3f 46 2f 81 3f 6d d7 7e 3f 1f 27 80 3f
       0.99273854 1.0092552 0.99547464 1.0011939
000090 7e 47 80 3f 81 cc 7e 3f f5 7a 81 3f b8 16 80 3f
       1.0021818 0.995308 1.0115649 1.0006933
0000a0 df 2b 7f 3f e8 8d 83 3f 73 20 7f 3f 35 3d 7e 3f
       0.99676317 1.0277681 0.9965889 0.99312145
0000b0 9b 9e 7c 3f 78 ed 81 3f 7d f9 81 3f 71 58 7e 3f
       0.9867951 1.0150595 1.0154263 0.993537
0000c0 6c 96 7e 3f a0 61 81 3f c6 2f 80 3f 7a 0c 7f 3f
       0.99448276 1.0107918 1.0014579 0.9962841
0000d0 05 1c 7f 3f 5a 0f 80 3f b3 2d 7e 3f 26 d7 80 3f
       0.9965213 1.0004685 0.9928848 1.0065658
0000e0 51 92 7f 3f a2 10 7f 3f 17 43 7d 3f c5 a0 80 3f
       0.99832636 0.99634755 0.98930496 1.0049063
0000f0 ba c0 81 3f e1 81 81 3f 15 26 7d 3f aa a5 80 3f
       1.013694 1.0117761 0.98886234 1.0050557

layers.2.w f4 [512, 10]
000000 80 53 7b 3c 9c cf 65 bb 02 85 a6 3b 8b 78 2b bb
       0.015339732 -0.0035066372 0.0050817737 -0.0026164379
000010 af 2e 07 bb 21 15 cd 3b 19 1c ec bb a9 8f 3a bc
       -0.002062719 0.0062586223 -0.007205498 -0.01138679
000020 62 65 13 3b fb 21 98 bb ca 86 13 3c 4e 4d c6 bb
       0.0022490849 -0.0046427227 0.009004304 -0.006051696
000030 8d a6 35 bb f5 81 ac 3b f2 e5 0d 37 ff 54 fc 3b
       -0.002771768 0.0052645155 8.457793e-06 0.007700562
000040 83 fb 5d 39 0a d6 81 bc 9d 9e 9b bb 55 21 08 bc
       0.00021169898 -0.015849132 -0.004749133 -0.008308728
000050 79 54 31 3c 4a 90 8b bb e2 66 a1 3a c1 0b eb ba
       0.0108233625 -0.004259144 0.0012313987 -0.001793258
000060 73 49 23 bb 52 3c d3 3a 8a 6d f7 ba 7f 2f 58 bb
       -0.0024915605 0.0016115999 -0.001887725 -0.0032987294
000070 62 e7 b8 3b 80 b2 7d ba a3 a0 e3 bb eb 9e 7d ba
       0.0056428174 -0.00096777827 -0.0069466396 -0.00096748647
000080 6c 56 c2 bb 73 13 68 3b 4e 32 83 b9 bb e1 06 3b
       -0.0059307124 0.0035411983 -0.00025023747 0.0020581323
000090 6c 91 0d 3c cd 3f be 3b da f8 19 bb d4 22 38 3c
       0.008640628 0.0058059455 -0.0023494274 0.011238772
0000a0 9d 13 ee bb 9b 66 85 3b 77 a3 85 3a 20 55 d3 bb
       -0.0072655217 0.0040710694 0.0010195811 -0.0064493567
0000b0 6f 16 1e bc f3 0b 09 bb e6 3e 89 3b bc 13 9e 3a
       -0.009648903 -0.0020911663 0.0041884063 0.0012060325
0000c0 68 26 e5 3b 26 c6 b5 ba 73 76 ff 3a 4e f7 90 bb
       0.006993104 -0.0013868257 0.0019490257 -0.0044240123
0000d0 c5 b5 7f bb 2f 3f c4 3a 69 2f 1f bc c0 a9 55 3a
       -0.0039018255 0.0014972443 -0.009715893 0.00081506
0000e0 a6 a7 04 bb f1 97 84 bc eb d3 85 3b e1 a3 2c 3c
       -0.0020241528 -0.016185733 0.0040841005 0.010537119
0000f0 6d 3f 56 bb e8 f4 b6 3a 5e 02 95 3b c3 ed b1 bb
       -0.0032691613 0.0013958486 0.0045474013 -0.0054299547
000100 29 fd 71 bb 7c 57 d4 3b 0d 7c 3f bb 5f 53 99 3a
       -0.0036924577 0.0064801555 -0.0029218227 0.001169782
000110 91 df ba b8 18 5d 3b 3b a5 9a 09 3c 49 af b4 bb
       -8.9108136e-05 0.0028589424 0.008398687 -0.0055140597
000120 8b a0 53 bb e2 c9 71 3c c7 bf 2a 3c 22 18 2e bc
       -0.0032291736 0.014757605 0.0104217 -0.010625871
000130 38 48 fe 3b aa 26 68 3b c6 64 b0 ba 54 77 86 bb
       0.007760074 0.0035423436 -0.0013457767 -0.0041035805
000140 e6 87 cd bb 4e 8a 81 3a bb d0 dd bb 34 da 8d 3b
       -0.006272304 0.0009883137 -0.0067692674 0.0043289904
000150 11 92 ef 3b eb e9 88 bb f9 9a ee 3b 68 de 09 36
       0.0073111136 -0.004178276 0.007281658 2.0544048e-06
000160 87 ec 9f bb 93 42 bc ba 8b 67 08 3c 27 ee 35 bb
       -0.004880491 -0.0014363102 0.008325468 -0.0027760358
000170 f8 46 12 3b 34 99 a5 3b 17 c4 e7 bb 64 37 f9 38
       0.0022320133 0.0050536636 -0.0070729363 0.000118835625
000180 05 f6 07 bb 6a b3 2b b9 99 61 14 bc 70 0c 17 3b
       -0.0020746004 -0.00016374668 -0.009056472 0.0023048185
000190 68 53 21 bc bb 33 42 bb b2 f8 d6 38 1b 40 c1 3b
       -0.009846546 -0.0029632885 0.00010250638 0.0058975345
0001a0 6e 46 51 3c 33 58 62 3b fb 11 98 ba c8 c1 f6 b8
       0.012773139 0.0034537434 -0.0011602038 -0.00011766289
0001b0 c1 62 43 3c 66 f0 b8 bb a1 d0 ac b8 6e 6d a5 bb
       0.0119254 -0.005643892 -8.240459e-05 -0.0050484454
0001c0 7e 78 c4 bb 21 14 0d 3b 0f e2 4f bb 7b fb 70 bb
       -0.005995809 0.002152689 -0.0031720435 -0.0036770988
0001d0 bd 4f 0e bb 5d e2 36 bc 86 68 66 3c 1c 63 4e bb
       -0.0021715008 -0.011162368 0.014063006 -0.003149218
0001e0 49 a5 cd 3b 0c ff 24 bc a8 10 31 bc 28 0b 0b 3c
       0.006275807 -0.010070574 -0.010807194 0.008486547
0001f0 0e ec 30 3c 67 7f 3e 3b 12 ab 89 bb ed 61 25 bc
       0.010798467 0.0029067637 -0.0042013014 -0.010094148
000200 58 06 80 3c aa 07 2c 3b 59 0d 98 3b 24 7a 80 ba
       0.015628025 0.0026249685 0.004640263 -0.0009802026
000210 55 18 a2 3b e1 36 05 bc 00 46 32 bc 9d a7 b3 bb
       0.0049467483 -0.00813076 -0.010880947 -0.0054826275
000220 8f 67 0f 3c 8a 3e 07 bc ea 0e 14 3b b0 68 91 3b
       0.008752718 -0.008254657 0.0022591897 0.0044375286
000230 e4 d1 26 3c b2 c9 87 3b ae bb 4a 3b 8a e9 00 bb
       0.010181878 0.004143917 0.003093462 -0.001967045
000240 23 3d 02 3c 0c f3 03 3b b8 8b df 3b 51 30 35 3a
       0.007949146 0.002013388 0.0068220757 0.0006911802
000250 e4 5a 6c ba 2f 2b 56 3b 6d 48 42 3c 18 80 76 3b
       -0.00090162293 0.0032679548 0.011858088 0.003761297
000260 2a d2 6c 39 d2 4d 0c 3c b7 e1 b5 bb a5 e6 a2 bb
       0.00022585006 0.008563476 -0.005550589 -0.0049713426
000270 07 54 01 bc c4 cf 3b 3c cc 89 10 ba 99 2a 92 bb
       -0.007893569 0.011463109 -0.00055136974 -0.0044606444
000280 6b cc 71 bc e6 0a aa 30 53 2b d5 2f 4c bd 92 b7
       -0.01475821 1.2372225e-09 3.8775258e-10 -1.7492705e-05
000290 01 56 08 bb d7 15 48 bb 2c 92 be 3b 63 46 3a bb
       -0.0020803215 -0.0030530596 0.005815765 -0.0028423301
0002a0 6e fc 8c ba 3a 39 71 3a 94 6c 20 bc 16 54 46 b9
       -0.0010756382 0.0009201948 -0.009791512 -0.00018914076
0002b0 28 e5 13 38 82 fd ae 3b 8f dd 1f bc f6 c3 31 b2
       3.526095e-05 0.005340279 -0.0097574135 -1.0347312e-08
0002c0 cb 59 ec bb 7b ee 0a 38 7e 8d 14 bc 23 42 74 ba
       -0.0072128526 3.3123866e-05 -0.0090669375 -0.00093177165
0002d0 61 b6 1e 3b ac dd 14 3c cc e4 53 3b 8c 74 8f bb
       0.0024217593 0.009086054 0.0032332418 -0.004377907
0002e0 48 fc 30 3b ca 46 01 3b 28 a2 12 bc b8 50 ab bb
       0.002700584 0.0019726031 -0.008949794 -0.0052281283
0002f0 9d 5e 4e 39 fb dd da bb f6 42 94 3c 77 1f f7 38
       0.00019680937 -0.006679294 0.018098336 0.000117837386
000300 2c ee e5 b9 2b 28 d8 bb 14 18 ca bb a4 4e 5a ba
       -0.00043855736 -0.0065965853 -0.006167421 -0.00083277584
000310 71 a6 22 3b e6 2a 91 3b 17 50 1f bb ad 62 14 bb
       0.0024818445 0.0044301627 -0.0024309212 -0.0022641823
000320 e3 c0 81 bc d1 39 a2 37 49 b5 27 bc 43 34 6e 3a
       -0.015839046 1.9338828e-05 -0.010236093 0.0009086767
000330 73 fe a8 3b 8d 4b 1b bc 81 e3 57 38 c6 33 96 ba
       0.005157286 -0.009478462 5.1471874e-05 -0.0011459521
000340 b4 cc 70 bb 31 a6 5c 3b ca 8e 88 3c b1 4b 37 3c
       -0.0036743106 0.0033668394 0.01666965 0.01118748
000350 71 23 37 3b d9 7a f8 b9 15 d3 37 3b 10 c2 31 bb
       0.0027944709 -0.00047393775 0.0028049399 -0.0027123727
000360 2a c7 ac 39 11 98 c3 ba 4f d4 74 bb d2 ed 64 3b
       0.00032954785 -0.0014922639 -0.003735799 0.003493179
000370 9a e9 19 3c d1 e6 0d ba a2 a7 4d 3c 6e b4 0e 3b
       0.009394074 -0.00054131175 0.012552174 0.0021775025
000380 fc e4 1d bc 07 4b 1e 3b bd 89 0b 3b 5a 3b 97 3a
       -0.009637114 0.0024153607 0.0021291815 0.0011538074
000390 45 2a da bb f5 68 00 3b 34 27 10 3c f8 07 26 ba
       -0.006657871 0.001959381 0.008798409 -0.0006333585
0003a0 25 3d c1 ba 48 04 e2 3b 37 c9 c2 3a 95 b0 4a bb
       -0.0014742954 0.006897483 0.0014860992 -0.0030928005
0003b0 86 c1 cf 3b 30 8b bc ba b0 a4 ef 3b 2c f6 9f 39
       0.0063402085 -0.0014384743 0.0073133335 0.00030510256
0003c0 2d a5 39 bc 86 9a 7c b9 ce d8 e2 3b d6 f7 91 3b
       -0.011330885 -0.00024090157 0.006922818 0.004454593
0003d0 c6 98 dd bb 0b 62 3e ba 21 d3 79 bb 0a cf a7 bb
       -0.006762597 -0.00072625343 -0.0038120227 -0.0051211165
0003e0 d1 9c a8 3b d0 2e 12 3c 0d ab 0a bc cf 60 be ba
       0.005145647 0.008922294 -0.008463633 -0.0014524701
0003f0 85 3b 40 3c 56 cd dc b9 8e 09 f8 ba fb d1 61 bb
       0.011732941 -0.00042114657 -0.0018923746 -0.0034457434

layers.2.b f4 [10]
000000 af 88 7c 3f 3b e4 80 3f 26 2b 7f 3f 0b 06 80 3f
       0.9864606 1.006965 0.99675214 1.0001844
000010 10 ad 81 3f 5c 36 7d 3f 6d 1c 7c 3f 7a 28 81 3f
       1.013094 0.9891107 0.98480874 1.0090477
000020 de e3 79 3f 4c 01 81 3f
       0.9761332 1.0078521
