s2net-emg/saved/modeldictNOFE.pt (torch, 223183 bytes, 6 tensors)

layers.0.w f4 [64, 1, 4, 3]
00000000: 3ef3 29bc cf94 703d dae0 f4bd 1650 25bc
00000010: 8675 eb3b 56ee 2dbd ffe8 80bd ee16 c2bd
00000020: 4ad7 37bd 7918 1a3d 7000 643d d241 85bc
00000030: cd9e 11bc 7c08 233d 2503 fabc 079d 5a3d
00000040: a77e 3dbd 24bd ff3b a972 4a3d 81e2 07bd
00000050: e963 95ba 0c21 8a3d fe7f 053d 000c 053d
00000060: a75f 63bc a336 bcbc 0868 a5bd 88ec 13bd
00000070: 542e d9bc f8f3 643c b70a 97bd aa5f 8ebc
00000080: 2b1e bd3d 5372 f1bb 3e77 3d3d 028f a63d
00000090: 6ea8 7abd 4a64 78bc e303 df3c 699a 27bc
000000a0: 7fae 83bc 0c40 0abd 5598 f13b dfbb ef3c
000000b0: cb85 723d 99c0 6fbd a050 e7bd 8fef 9f3c
000000c0: ff84 5fbc d3b2 69bd 4276 4b3c c0b3 d9bb
000000d0: 3762 0cbc 71a7 a63c 96d4 193d 19c6 70bd
000000e0: 9986 0b3d 79ed 36bd 6e42 fd3c eb3d fcbc
000000f0: 28b9 d23c 89a2 42bd cc66 b23c 46b9 4d3d
00000100: 7d68 313d cae6 033b 702c cbbc b93f 2f3d
00000110: 4f5e 04bd 3e2a 4a3d d31f 553b 11eb 0d3c
00000120: a11e 893d 9a5c 1cbd be70 e23c 1229 71bc
00000130: e60a 72bd acd5 5fbc ae90 f23c 3cc4 4b3d
00000140: f15a 6bbd 3d8e 553d c356 aabd 46bf ed3d
00000150: 2054 013d bf2d 61bb 8b47 a63b 948a d139
00000160: c06d 9abd 9bed fd3b 9ed7 b5bc 75be ad3b
00000170: 5371 c33b 1d53 55bc 98a8 4ebc ec65 91bc
00000180: bff5 0fbc d76c bfbc 0a0d ee3b 9e7e 323d
00000190: 5c05 013d 0a1a 3f3c dd58 06bc fb93 c43c
000001a0: b4da 01ba 4223 f3bc 18a9 f3bb 8b2b 79bc
000001b0: 8043 4ebd ac96 4b3c 8519 aebd 9a4c dcbc
000001c0: 96c9 7e3d 8033 c13c b856 25bd c05d 973d
000001d0: bcf5 8ebd 4fd9 13bd 1f72 193c f731 9cbd
000001e0: 18b7 893c e3a2 b13c 77cc 08bd 9ec4 1c3d
000001f0: 2634 16bd 9da3 c7bc cf6d 82bd d286 82bc
00000200: 85b8 d0bb 8277 683d 9a57 90bd f199 cabd
00000210: c5d2 cdbc 4506 90bd 80e7 ccbc e893 d73c
00000220: 8ac7 153d a13d f4bb 8a5f 0d3c 581e bebc
00000230: d271 e23c f3b5 3e3d cf5c 003c de0f 4f3d
00000240: 1bf2 ca3c e56b db3b ac6b 47bd 13c4 25bd
00000250: 2647 43bd 9ab9 bd3c 4eef 823b 5ee1 a5bd
00000260: 16ab f13c 3f12 adbd 7e79 f6bc 7202 b136
00000270: d55b ea3c 43f8 13bd d940 70bd c9bc 7fbd
00000280: c8b5 c93c ed42 5fbd b7d0 4a3d 5c6f 16bd
00000290: b20c 383d 8142 3cbd 3e03 f7bc 57ca 3dbd
000002a0: b238 d0bb 0e93 c9bc 413f 783a 6813 383d
000002b0: 202f 833c d273 143d 1659 bfbd 8979 6ebd
000002c0: 1d2d 23bc d798 ecbc 76d3 7bbc e6bf 83bd
000002d0: 1e28 263d 9144 1ebd 2794 80bc 787a edbc
000002e0: 8f49 643b 3c63 db3a f03e df3c eda7 7b3c
000002f0: 7a43 b33d 73ed 6bbd 54c3 1fbc 4896 093c
00000300: ffcb c4bc 1c65 c23c 6027 3b3c 6840 1a3d
00000310: f05e 03bc 4d90 603c 7f18 87bd 0c57 9d3d
00000320: a286 753d 66ac 3fbc c87e 1cbb 8f6b 093d
00000330: 1c5b 323c 0576 6dbd 7e8f b63c 4ec4 4bbb
00000340: 2544 7dbc dc66 813d 0457 a93b 3482 ea3d
00000350: 2747 74ba 8f72 a73b 92db 5bbc 9b90 663d
00000360: ac4c 41bd 9729 03bd 12eb c03c 17fd b13c
00000370: b966 89bd 0f68 643d d5ae 8cbd 5ecf f63c
00000380: 8eb6 9b3d 083c a93c b1c7 113d d50f 02bc
00000390: ae1b 573d 6331 8aba 1588 f0bb 11d9 8d3d
000003a0: 1d3e 9f3c 7d31 123d 74f7 113d 363f 66bb
000003b0: 0445 16bd 3f30 a7bc 97f6 9e3b b89c 6cbc
000003c0: 4ea6 20bd 5c9a 773c f3c6 973d ba9c 6b3d
000003d0: 5e73 363d fc82 9bbd e16e f33b 719a 133c
000003e0: 7d4c cc3c 9108 a3bd 73c1 e53c c443 b0bd
000003f0: 3d20 80bc fa4d 713d 832e fe3c aa14 3cbd
-0.010372935 0.058735665 -0.119569495 -0.010089895 0.0071856407 -0.042463623 -0.062944405 -0.0947703
-0.04488305 0.037620995 0.05566448 -0.016266737 -0.008887959 0.039803013 -0.030519078 0.05337241
-0.046263363 0.0078045297 0.049425755 -0.033174995 -0.0011397573 0.067445844 0.032592766 0.032482147
-0.013877786 -0.022975272 -0.08076483 -0.036114246 -0.026511349 0.013974182 -0.073750906 -0.0173796
0.0923427 -0.007368365 0.046256296 0.08132745 -0.061195783 -0.0151606295 0.027223533 -0.010229685
-0.016074417 -0.033752486 0.0073728957 0.029264389 0.059209626 -0.058533285 -0.11294675 0.01952341
-0.013642549 -0.057055306 0.012418332 -0.0066437423 -0.008568338 0.020343514 0.037556253 -0.05878267
0.03406391 -0.044660065 0.030915465 -0.030791244 0.025723055 -0.047518287 0.021777533 0.05022552
0.04331254 0.0020126575 -0.024801463 0.04278538 -0.032316502 0.04935669 0.003252019 0.008662001
0.06695295 -0.03817425 0.02764165 -0.014719265 -0.059092425 -0.013661783 0.029610004 0.04974769
-0.057459775 0.052137602 -0.0831733 0.11608748 0.03157437 -0.0034359542 0.0050744466 0.00039966835
-0.075404644 0.007749272 -0.02219754 0.0053022453 0.005964437 -0.013020304 -0.012613438 -0.017748795
-0.008786618 -0.023367329 0.007264738 0.043577783 0.03149925 0.011663923 -0.008199898 0.023996344
-0.0004953549 -0.029679898 -0.007435929 -0.015208135 -0.05035734 0.01242606 -0.08500961 -0.026891995
0.062203966 0.023584127 -0.040365905 0.07390928 -0.06980464 -0.036095913 0.0093655875 -0.076267175
0.016810939 0.021684116 -0.033398118 0.038273446 -0.036670826 -0.02437001 -0.063686006 -0.015933428
-0.0063696527 0.056754597 -0.07047959 -0.09892643 -0.025124917 -0.07032446 -0.025012732 0.026315644
0.03656725 -0.007453636 0.008628735 -0.023207828 0.027642164 0.04656024 0.007834627 0.05055224
0.024773648 0.0066962116 -0.04868667 -0.040470194 -0.047675274 0.02315979 0.0039958125 -0.08099626
0.029500525 -0.08450746 -0.030087229 5.2752957e-06 0.028608242 -0.036125433 -0.058655594 -0.0624359
0.024622813 -0.054507185 0.049515452 -0.036727294 0.044933982 -0.04596186 -0.030152913 -0.046335544
-0.006354415 -0.024606254 0.0009469875 0.044940382 0.016013682 0.036243267 -0.09343164 -0.058221374
-0.009959486 -0.028881473 -0.01537024 -0.06433086 0.040565602 -0.03863961 -0.015695645 -0.028989062
0.0034833883 0.0016737948 0.02725169 0.015359861 0.087531045 -0.057599496 -0.00975116 0.008397646
-0.024023054 0.023729853 0.011422962 0.03765908 -0.00801824 0.013706279 -0.06596469 0.076826185
0.05994285 -0.011698818 -0.0023879278 0.03354984 0.01088598 -0.05797388 0.02228522 -0.0031092349
-0.015458141 0.06318447 0.005167844 0.114506155 -0.0009318464 0.005110092 -0.013419049 0.05629025
-0.04719226 -0.032022085 0.02354959 0.021727128 -0.06709046 0.0557633 -0.06869284 0.030128177
0.07603179 0.020658508 0.03559083 -0.007938345 0.05251663 -0.0010543283 -0.007340441 0.06926168
0.019438798 0.035691727 0.03563638 -0.0035132891 -0.036686912 -0.020408748 0.004851173 -0.014441662
-0.0392211 0.015112486 0.074109934 0.057522513 0.044543616 -0.07593343 0.0074289893 0.00900899
0.024938816 -0.07960618 0.028046345 -0.08606675 -0.015640372 0.058912255 0.031028038 -0.045918144

layers.0.b f4 [64]
00000000: 487e 833f 87d5 803f 5fa8 7f3f 3f7e 823f
00000010: 47ec 813f fac7 803f aa74 7e3f d863 813f
00000020: 59e9 7e3f 8d9d 7f3f 0521 7e3f 0c30 813f
00000030: 34a6 803f 0768 813f fbc2 803f c1d2 803f
00000040: 60de 7b3f 5716 833f be5b 823f 755b 7e3f
00000050: 27c7 7d3f d176 803f 9632 813f 9781 7f3f
00000060: e88f 7c3f cda5 803f 9252 833f 5d0b 813f
00000070: eca2 803f e1c6 7f3f 1334 813f 82cc 7f3f
00000080: 7c99 803f 0e47 7e3f 4221 813f 40fe 7e3f
00000090: 8b44 813f 5095 7e3f 2a1a 803f 8044 813f
000000a0: f435 7f3f f015 813f 77d2 803f fc85 803f
000000b0: dde2 803f ee25 813f 8313 813f d2fe 803f
000000c0: 3e78 7f3f f654 7e3f 3a8a 813f 21a9 803f
000000d0: 6371 7e3f d170 7d3f 2c76 803f 3d4e 843f
000000e0: 0162 7f3f 9d5c 813f 9105 7f3f f250 7f3f
000000f0: 5b10 7d3f 1f83 7f3f 31c3 7d3f 7812 813f
1.0272913 1.0065163 0.9986629 1.0194777 1.0150231 1.0061028 0.99396765 1.0108595
0.9957481 0.9984978 0.99269134 1.0092788 1.0050721 1.0109872 1.0059503 1.0064317
0.9838619 1.0241193 1.0184247 0.993583 0.9913201 1.003626 1.0093563 0.99807113
0.98657084 1.0050598 1.0259573 1.0081593 1.004972 0.9991284 1.0094017 0.9992143
1.004684 0.9932717 1.0088274 0.99606705 1.0099043 0.9944658 1.0007985 1.009903
0.996917 1.008482 1.0064229 1.0040889 1.0069233 1.00897 1.008408 1.0077765
0.9979285 0.9934839 1.0120308 1.0051614 0.99391764 0.9900027 1.0036063 1.0336376
0.9975892 1.0106388 0.9961787 0.9973289 0.9885308 0.9980945 0.99125963 1.0083761

layers.1.w f4 [64, 64, 4, 3]
00000000: a8ac e63b 1d20 ffba b243 d3b9 8253 17bc
00000010: f50a 363b 3e41 fdbb 7c6b fc3b 18c6 abba
00000020: b46c febb fffd 50ba 5c61 61bb f9a1 003a
00000030: ebbe 9dbb 7889 1bbb 6f6c 31bb 60b9 f8bb
00000040: 744b 49bb 682d e8bb 05c8 a93a 0b04 ddbb
00000050: 472e e33b 0019 183c b819 91bb 71ca 1dbb
00000060: ac51 2a3b e92e 043b 527d b93b c400 7aba
00000070: afcc 9a3b ce6a d33b 230f 76bb afb8 9cbb
00000080: 5b45 9c3b c91b e3ba 1a85 51ba 60b3 873b
00000090: 701c 963b 79b5 3c3b 4fce 28ba 5bf3 763b
000000a0: 7354 1d3b 5216 a23b 23b9 b43b a154 773b
000000b0: f3eb e43a a02e 02ba ada2 ac3b fc33 b2bb
000000c0: 47cd 923b 34d8 edba 1938 cf3a 187c 9b3a
000000d0: 8381 043c e856 58bb 2407 a43b 27d4 503b
000000e0: b238 e13b 3aa7 0a3c 7dc2 07bc 33e0 dbbb
000000f0: b317 61bb 5945 b3b9 a35d fc3b 1bd6 ba3b
00000100: 6987 2abb 0d82 fa3a cdf5 e939 c923 debb
00000110: c7f9 a7bb fb52 43bc 0391 03ba 1548 3abc
00000120: 3202 59bc fb12 26bb accf 213b 4110 2eba
00000130: 715b 35bc 222e 10bb 86b6 5dbb 2be5 bfba
00000140: ead0 04bc 8b04 ef3b a074 a13b 2c9d 1bbb
00000150: e331 693c ce7e 81bb 3d2e 0d3c 5d86 b7ba
00000160: bb3a 13b9 0959 d23a eb41 933a 555d 3fbb
00000170: e638 a93b 2882 c8ba 669e c73b 730a 883b
00000180: 8657 493b 173f 97b9 d9ca a23a ebbc e1ba
00000190: 3d78 b13b f761 223c 7cc5 cbb9 d8d5 03bc
000001a0: 5f3c 19ba 9d8a 9f3b 361c a1bb ad98 54bb
000001b0: 7c5c 57ba 1360 b53b f99c 2aba 4cb0 0fbb
000001c0: c05c 3a3b d975 833b fe0f f339 ef0a 7e3b
000001d0: e6bf 4fbb aecb 973a b2a4 a8bb 8aa0 533a
000001e0: 55e6 07bb 1e97 523b 4eee 803b 2230 16ba
000001f0: 845b 5a3b ce94 b4ba b1b8 b8ba af2d a83a
00000200: 789b 173a 827f b1bb 0743 143b e463 e3ba
00000210: 1eed 92ba e90c 05bb e56f c8bb 97c2 fcbb
00000220: dd26 f4bb e850 07bc dce5 09bc d6a3 a03a
00000230: 28b0 cfbb 3416 d339 041e e2bb 4cd1 0dbb
00000240: 131e 33bb 787e 173c 27f6 a8b9 652f 153b
00000250: 9b87 53bc 8281 bb3b db14 d43b 8617 8fba
00000260: c417 d03b e304 e239 34e6 173b c6ba 303a
00000270: 05aa 083b fc2b 82bb b97f 9e3b d7bd 27ba
00000280: 1824 9ebb 329c 63bb 0832 85ba e75e f1ba
00000290: 034e 243c c439 f3bb fb51 89bb ccb8 41ba
000002a0: 0577 3bba 0876 febb cc2f 193b a8b2 213c
000002b0: da28 04bc 5b50 1a3a 23b5 bf3b 3587 003b
000002c0: fc87 953b a6cf a53a c3b5 bfba a3f8 d33b
000002d0: 84db 5fbb be47 91bb 48ab e9bb 2d7b abbb
000002e0: 53a0 c4bb 5691 ba3b 26da a13a edac e4ba
000002f0: 2851 80bb 4cc4 acbb 2259 183b 05a4 203b
00000300: e066 093c 7896 f53a 99fe 0bbc f437 e5ba
00000310: b4a5 82ba e50a 9fba 1f0b d1bb bb5d a8bb
00000320: 7fb1 9ebb bd52 bf3b 9eef 823b d2b9 3f3a
00000330: 28d3 a1bb d296 aeb8 f50b 1c3b 1c83 27bb
00000340: 352f 9eba fd81 183b cb20 abbb 9a01 4b3a
00000350: db3c f9bb eca4 2d3c 4632 a9bb 6ffc 643c
00000360: 5cbc cabb 0ebc e33b 5800 9dbb e6cd dfbb
00000370: 453a 9bbb fe42 9b3b 2513 e83b 6817 36bc
00000380: 5a9a 94bb 3ba1 223b 588e a1bb 33b1 b53b
00000390: 039c e03a 4928 a63b 342b 6abb f76f 1cbc
000003a0: 82f8 5ebb 20ba 143b 883f 51bc 42d7 cabb
000003b0: 301c 02bb 6c7d c2ba 876f c1ba b4e8 573b
000003c0: a3b7 4eb9 45e5 9cba ce27 883b 04b3 3bba
000003d0: 6df5 9cba 100c 273c c863 203b 4f19 93bb
000003e0: 6ba3 8b3b 91d9 253b d86c 1e3b ca38 243b
000003f0: b5a6 583b 3fbd 97bb 7232 043c 2b9b 0d3c
0.007039625 -0.0019464527 -0.00040295493 -0.009236218 0.0027777527 -0.0077287247 0.007703243 -0.0013105301
-0.0077644233 -0.00079724187 -0.0034390306 0.00049069483 -0.004814019 -0.002373306 -0.0027072688 -0.007590458
-0.003071514 -0.007085491 0.0012953287 -0.0067448667 0.006933007 0.009283304 -0.0044281147 -0.0024076963
0.0025988622 0.0020169562 0.0056606913 -0.0009536857 0.004724107 0.006451941 -0.0037545643 -0.004782758
0.00476901 -0.0017327006 -0.0007992551 0.004141256 0.0045810267 0.002879469 -0.0006439434 0.0037681672
0.0024006634 0.0049465084 0.005515234 0.0037739652 0.0017465338 -0.0004966054 0.005268416 -0.005438326
0.0044800374 -0.0018146099 0.0015809565 0.0011862544 0.008087519 -0.0033010785 0.005005734 0.0031864734
0.0068732137 0.0084627215 -0.008286116 -0.0067100762 -0.0034346401 -0.0003419321 0.007701592 0.005701793
-0.0026020652 0.0019112244 0.0004462436 -0.0067791683 -0.0051262113 -0.01192164 -0.0005018862 -0.011369725
-0.013245152 -0.0025340903 0.0024690432 -0.0006639995 -0.011069165 -0.0022000154 -0.0033830716 -0.0014640441
-0.00810645 0.0072942427 0.004927233 -0.0023744805 0.014233085 -0.003951884 0.008616981 -0.0014001835
-0.00014040891 0.0016048263 0.0011234855 -0.0029199917 0.0051642535 -0.0015297579 0.0060918806 0.0041516363
0.0030722334 -0.0002884797 0.0012420072 -0.001722244 0.005415945 0.009911052 -0.00038866315 -0.00804659
-0.0005845483 0.004868819 -0.004916693 -0.0032439635 -0.00082153804 0.0055351346 -0.0006508376 -0.002192515
0.002843663 0.0040118513 0.00046360487 0.003876384 -0.0031700074 0.0011581087 -0.0051465863 0.00080729334
-0.0020736654 0.003213353 0.003934658 -0.0005729218 0.0033318708 -0.0013777257 -0.0014093128 0.0012830998
0.00057833595 -0.0054168114 0.002262296 -0.0017348495 -0.0011209582 -0.0020301885 -0.0061168545 -0.0077136266
-0.007450922 -0.008259036 -0.008416619 0.0012255858 -0.006338138 0.000402616 -0.006900551 -0.0021639643
-0.0027331158 0.009246461 -0.00032226855 0.0022763845 -0.012910749 0.0057222256 0.0064722127 -0.0010917045
0.0063504893 0.0004310972 0.0023177983 0.00067416986 0.0020853293 -0.0039725285 0.004837003 -0.0006398833
-0.00482608 -0.003473055 -0.0010162005 -0.0018415124 0.010028365 -0.0074226577 -0.004190681 -0.00073899026
-0.0007151219 -0.0077655353 0.0023374436 0.009869255 -0.00806638 0.00058866077 0.0058504506 0.001961184
0.0045633297 0.0012650385 -0.0014626313 0.006468849 -0.003415794 -0.004433601 -0.007131014 -0.0052331896
-0.0060005574 0.005693595 0.0012348338 -0.0017446555 -0.0039159246 -0.005272424 0.0023246487 0.0024511826
0.008386344 0.001873686 -0.0085445875 -0.0017487989 -0.0009967596 -0.0012133984 -0.0063794996 -0.0051381267
-0.0048429365 0.0058387206 0.0039958498 0.0007313761 -0.004938502 -8.325059e-05 0.0023810838 -0.0025560325
-0.0012068512 0.0023270838 -0.005222415 0.0007744074 -0.0076061315 0.0105984025 -0.0051634638 0.0139762005
-0.006187005 0.006949908 -0.0047913007 -0.006829965 -0.004737171 0.0047382107 0.0070823603 -0.011113979
-0.0045350017 0.002481534 -0.004930299 0.0055448054 0.0017136339 0.0050707203 -0.0035731317 -0.009548179
-0.0034022634 0.0022693947 -0.012771495 -0.0061902115 -0.0019853227 -0.0014838404 -0.0014757969 0.0032945098
-0.00019714101 -0.0011970183 0.0041551357 -0.00071601593 -0.0011974998 0.010195747 0.0024473537 -0.004489101
0.0042614243 0.0025306682 0.0024173763 0.0025058263 0.003305835 -0.004630714 0.008068668 0.008642952

layers.1.b f4 [64]
00000000: 4b05 7d3f cdf7 7e3f 9c75 7e3f d6bf 803f
00000010: e457 7e3f 86ea 7d3f 441a 7e3f 2669 803f
00000020: 57d5 803f 81e0 7e3f 0459 803f 334b 7f3f
00000030: d35b 823f 1347 7f3f 0548 7f3f 2d84 813f
00000040: 6e55 803f 40ca 7e3f 4cc4 803f e256 813f
00000050: 6401 813f fd5b 7e3f e88b 7e3f cf99 7f3f
00000060: bd5f 803f 312e 803f 9481 7e3f 7cca 7e3f
00000070: 2e81 823f 4095 813f ebdd 813f cb23 7e3f
00000080: ab93 7e3f 16a6 7d3f 48a4 803f 8dc4 803f
00000090: 293d 823f ca0a 813f 2552 803f ad2a 803f
000000a0: e60d 7f3f 812d 7f3f 3adf 7f3f b63f 803f
000000b0: a270 823f d218 7f3f 5741 803f 20a8 803f
000000c0: 04c2 803f 0d9d 803f dccb 7d3f 22eb 803f
000000d0: 8438 823f fbc5 803f b50b 7d3f b345 823f
000000e0: ea99 813f 9eac 7e3f 298e 803f 79ef 7f3f
000000f0: 189e 803f 5933 7f3f ea30 813f f5e9 813f
0.988362 0.99596864 0.9939821 1.0058544 0.9935286 0.9918598 0.9925883 1.0032089
1.0065106 0.99561316 1.0027165 0.9972412 1.0184273 0.99717826 0.9971927 1.0118462
1.0026071 0.9952736 1.0059905 1.010464 1.0078549 0.9935911 0.9943223 0.9984407
1.0029217 1.0014096 0.9941647 0.99527717 1.0195673 1.0123672 1.0145849 0.99273366
0.99444073 0.9908155 1.0050135 1.0059983 1.0174915 1.0081418 1.0025069 1.0013024
0.9963058 0.9967881 0.9994999 1.0019443 1.0190623 0.9964725 1.001994 1.0051308
1.0059209 1.0047928 0.9913919 1.0071757 1.0173497 1.0060419 0.9884599 1.017752
1.0125096 0.9948214 1.0043384 0.9997478 1.0048246 0.99687725 1.0093052 1.0149523

layers.2.w f4 [512, 10]
00000000: e10f d83a 8624 93b7 40c6 d6b7 4273 c5b6
00000010: 8e45 0a37 6f1c 803a dd6f f2b6 6cbf d33a
00000020: 9139 8e3b baed 9bb7 93a9 dd3b 6fee 9a3a
00000030: 0e5a 9739 8658 a9b4 24a4 c239 4ea9 cf3a
00000040: 9984 f039 47d1 4eba 26f1 f5b9 f964 853a
00000050: c3fe d13b d56d 4fbb 02c2 0339 773d 8eb7
00000060: c76e 6bba 070b ad38 4425 4939 7594 e6b6
00000070: e97d ec35 84d4 603a dcbd 25bc 2d86 093a
00000080: 57fc a3b7 4348 98ba d658 7fb4 373e fcb4
00000090: b7e4 edb7 604b 34bb 6f4c b937 ad8c d03a
000000a0: de93 983b a413 4ab7 7708 d037 8dae 8f38
000000b0: 8158 cbb0 c5b7 24b5 0153 2db5 a25f 9cba
000000c0: 4447 f239 cd29 abbb 9040 503b e5e8 9ab7
000000d0: a49a f9b8 1866 11bb 4a72 e6ba 3dd7 ccb9
000000e0: 5656 8e3b 188e a1ba 0ffc 61ba f16b 653b
000000f0: 9180 e63b 0820 ab3a d6e0 ea3a 398e e43a
00000100: cce7 61ba db3a 59ba ae57 b63a ac30 523b
00000110: 56e9 b539 e687 9fbb 5312 063b cc90 bc3a
00000120: 91e5 71bb 40df b6b9 9047 02ba f0f5 99ba
00000130: 99c3 a739 f6e6 b83a 2645 e0bb 282f 8639
00000140: 6470 28ba f8dd 4c3b 4043 0b3c b37b bb3a
00000150: 5ff5 56bc 6e2b b63b b882 d5b8 af7e c23b
00000160: 8083 b33b fc62 1a3c 9520 52bb 474e caba
00000170: 43d2 d13b e97b edba c11a 88ba 0a27 2cbb
00000180: 8575 aaba b171 e63a e197 a5bb fbde 7cba
00000190: fbc7 8938 3ac5 2dbc cc64 05bc 57fe 0abc
000001a0: 737a e83b 10a9 64bb af0f 10bc 6c29 9739
000001b0: bb12 e33b 7897 19bb 9b34 d93b 4720 12bc
000001c0: b6e7 94ba e27e 583a 11cc 1ab9 4b9d 153b
000001d0: 5543 b1bb 98a4 c5ba 0012 ae3b 3b8f 8dbb
000001e0: c618 603c 99a5 14bb cc7f 45bb 15f1 e039
000001f0: c94d 903a bc79 0d3b dc3c 1bbb 0b58 f2ba
00000200: 7691 a039 457c 05bb e7aa 0b3b 18b5 40bb
00000210: 3112 2eba fa63 52bc 7d67 e4bb 908b 0cbb
00000220: 4188 013a c74e 5ab7 a751 8bb8 6154 b43a
00000230: dd8a 13bc 40aa d93b 0290 45ba 4195 793b
00000240: 3d0a fbba 2459 223b ab6c 50ba 6c3d adb9
00000250: a650 fabb c3b1 03bc 4068 c5bb 3805 293b
00000260: 50b6 62bb 52e5 463b a97d f03a 5cde 51bc
00000270: 6422 9a3b 1696 8d3c 38c5 bdbb 2aa8 3ebc
00000280: c121 6fbb 2ec7 183c 7fc2 36bc b1df 003c
00000290: d4c8 203c b70b d73b 4e97 13bb c960 323c
000002a0: 3ddd 993b ff65 813b 0100 5ebb 13ba 72bb
000002b0: 1f70 e8b9 a143 c73b 6315 f63b a498 a13a
000002c0: ed26 70bb 17d6 3e3b c8cf 2939 1319 28bc
000002d0: 2e36 b13b dc3f b439 6a2d c73b 874f 94bb
000002e0: e540 36bc 303e 55bb 5528 023c a06e 6cbb
000002f0: 7b0d 04bc ba39 893b 2756 ff3a 32ef 283c
00000300: e402 9f3b e072 003c d797 2bbc 2bee edbb
00000310: a3a5 043c da18 b239 2643 c53b 73b3 aebb
00000320: 0c81 f03b f83b bdba fe73 c5b9 7c16 07bc
00000330: d301 943a 7ab3 91bb 0dc7 5dbb 96b0 0d3c
00000340: 4069 8dbb 6635 4b3b bb8c af39 d010 a6bb
00000350: 5ead 2dbb ff2c 0a3a 7d2c a43a 0f8e 943b
00000360: 4f7d 1cbc f8ec b7bb 6839 ed3b de2c 3f3a
00000370: c06d 1abc 6656 063c 3a19 30bb d3a4 133c
00000380: ca56 0dbb ac0c c8ba cd1b f83a d287 ebba
00000390: e0f2 173c 7b21 20bb 0b9e 293c 1627 c3ba
000003a0: 19f7 7c3c 1d23 8c3b 272a c73a e8ec ae3b
000003b0: acb2 083c 3b14 29bc b2e5 c6bb 0381 973b
000003c0: d40a 693c f6ec 31bc 8bf5 f5bb a6e4 e03a
000003d0: 3d11 0fba 7d44 eaba 76c0 beba b72e 2abc
000003e0: 7136 b4bb 28f3 e3bb 1bf3 06bc 02a5 c43b
000003f0: 36d2 7b3b 265d d5bb a257 bcbb a116 1e3b
0.0016484224 -1.7540773e-05 -2.5603105e-05 -5.8844753e-06 8.241635e-06 0.0009774099 -7.2251846e-06 0.0016155071
0.0043403585 -1.858814e-05 0.0067645996 0.0011820326 0.0002886806 -3.1543112e-07 0.00037124858 0.0015843303
0.0004587516 -0.0007889461 -0.0004690971 0.0010177187 0.006408544 -0.0031651158 0.00012565407 -1.6956341e-05
-0.00089810457 8.251337e-05 0.00019182736 -6.871817e-06 1.7620015e-06 0.0008576589 -0.010116067 0.0005246129
-1.954862e-05 -0.0011618215 -2.3781044e-07 -4.6983925e-07 -2.8359105e-05 -0.0027510747 2.208931e-05 0.0015911065
0.004656299 -1.2044711e-05 2.4799474e-05 6.851284e-05 -1.4795348e-09 -6.136218e-07 -6.456831e-07 -0.0011930356
0.00046210934 -0.005223489 0.0031776763 -1.846668e-05 -0.00011902049 -0.0022186097 -0.0017581668 -0.00039070277
0.004343788 -0.0012325672 -0.00086206285 0.0035006965 0.0070343693 0.0013055811 0.001791979 0.0017437405
-0.0008617609 -0.0008286663 0.0013911629 0.0032072468 0.0003469686 -0.0048684953 0.00204577 0.0014386415
-0.0036910514 -0.0003488008 -0.000496977 -0.0011746269 0.00031998454 0.0014106918 -0.0068441806 0.00025593606
-0.0006425439 0.0031260233 0.00849992 0.0014303833 -0.013120024 0.0055593764 -0.0001018098 0.005935512
0.0054783225 0.009423014 -0.0032062877 -0.0015434705 0.006403239 -0.0018118593 -0.001038395 -0.0026268386
-0.0013004994 0.001758149 -0.0050535058 -0.0009646264 6.569918e-05 -0.0106061045 -0.008141708 -0.008483491
0.007094675 -0.0034890808 -0.008792802 0.00028831826 0.006929723 -0.002343623 0.0066285855 -0.008918828
-0.0011360559 0.0008258653 -0.00014762605 0.002282935 -0.005409638 -0.001507896 0.0053122044 -0.004320053
0.013677781 -0.0022681712 -0.0030135987 0.0004290423 0.001100951 0.0021587452 -0.0023687398 -0.0018489374
0.00030625955 -0.002036826 0.0021311583 -0.0029404815 -0.0006640284 -0.012841219 -0.0069703446 -0.002144549
0.0004941263 -1.3012154e-05 -6.6432454e-05 0.0013758057 -0.009005276 0.00664261 -0.00075364124 0.0038083347
-0.0019152832 0.002477237 -0.0007950763 -0.00033042894 -0.0076390086 -0.008037987 -0.0060243905 0.0025790464
-0.003459353 0.0030349088 0.0018347997 -0.012809362 0.0047038067 0.01728348 -0.0057913326 -0.011636773
-0.0036488625 0.009324832 -0.01115477 0.007865832 0.009813506 0.006562676 -0.0022520605 0.010887333
0.004695563 0.0039489265 -0.0033874514 -0.0037037178 -0.00044334025 0.00608106 0.0075098737 0.0012328816
-0.0036644295 0.0029119307 0.000161945 -0.010259884 0.00540807 0.00034379854 0.006078412 -0.004526082
-0.0111238705 -0.0032538287 0.007944186 -0.003607668 -0.008059855 0.0041877897 0.0019480631 0.010310935
0.0048526395 0.007839888 -0.010473213 -0.007261058 0.0080961315 0.00033969322 0.0060199676 -0.0053314506
0.0073396023 -0.0014437428 -0.0003766119 -0.008245107 0.0011292048 -0.004446444 -0.0033840567 0.008648058
-0.0043155253 0.003100717 0.00033483453 -0.005067922 -0.002650104 0.0005270987 0.0012525466 0.0045335363
-0.00955136 -0.0056129657 0.0072395094 0.00072927575 -0.0094255805 0.00819931 -0.0026870505 0.009011465
-0.0021566623 -0.0015262566 0.0018929184 -0.0017969555 0.0092742145 -0.0024434018 0.010352622 -0.0014888968
0.015439772 0.0042766468 0.0015195057 0.0053383 0.00834338 -0.010319765 -0.0060698623 0.0046235337
0.014223773 -0.010859719 -0.0075060776 0.0017157986 -0.0005457586 -0.0017873194 -0.0014553207 -0.010387114
-0.005499654 -0.0069564767 -0.008236672 0.006001116 0.0038424856 -0.0065113483 -0.0057477513 0.0024122375

layers.2.b f4 [10]
00000000: f78e 813f 4dab 7b3f 91ee 7e3f 0670 7c3f
00000010: 0773 803f c73d 7c3f 2cae 813f 6e11 803f
00000020: 6b3c 803f a0a8 7d3f
1.0121754 0.9830826 0.99582773 0.98608434 1.0035104 0.98531765 1.0131278 1.0005319
1.0018438 0.99085426
