s2net-emg/saved/modeldictPSD.pt (torch, 226127 bytes, 6 tensors)

layers.0.w f4 [64, 2, 4, 3]
000000 25 26 2a ba 77 b2 28 bc 50 9f 2c 3c e7 7c 31 3d
       -0.00064906693 -0.010296456 0.01053603 0.043332007
000010 e2 5f 0e bd a9 69 6a bd f5 5f da 3c 46 21 1b bd
       -0.03475941 -0.05722967 0.026657084 -0.03787353
000020 35 10 a1 3c 5d 83 77 3b f8 c5 62 3c 64 02 90 bc
       0.019661048 0.0037767508 0.013841145 -0.017579265
000030 45 66 80 3d 61 a7 12 3d 06 05 43 3c d9 9e 99 3a
       0.06269506 0.035804156 0.011903053 0.0011720314
000040 ad 7e 7c bc 7f 83 c2 3c b3 4b c3 3c 53 ef 22 bc
       -0.015411061 0.023744343 0.023839807 -0.009944755
000050 eb ae b1 bb 20 50 2a bd 80 6b e6 bb d2 73 1a bc
       -0.005422463 -0.04158032 -0.007031858 -0.009427028
000060 e8 7a 10 3d 82 dc 16 bc 8c 6c 44 bc 01 12 91 3c
       0.035273463 -0.009207847 -0.01198877 0.01770878
000070 64 98 66 bd d2 0f a8 3b 02 91 2c bb 13 03 00 bd
       -0.056297675 0.005128839 -0.0026331549 -0.03125293
000080 be 28 76 3d d8 79 27 bc d5 2a 2c 3b c1 6e ee bc
       0.06009745 -0.010221921 0.0026270647 -0.029105546
000090 e1 7f 07 bd 79 38 cb 3c ca 27 b3 3c 00 ca 42 bc
       -0.03308094 0.024807202 0.021869559 -0.011888981
0000a0 5f 44 88 3d 62 81 d2 bc 19 72 fc 3c e7 e2 f9 bb
       0.06653666 -0.02569646 0.030816125 -0.007625926
0000b0 2e 17 b0 3b 4e fa 6e 3b ad 4b 19 3d 07 7b 75 3c
       0.005373857 0.0036465111 0.037425686 0.014982945
0000c0 de 45 a7 bc 13 c9 75 bc 79 de 70 3c 81 7f 03 bd
       -0.020419057 -0.015001553 0.014701479 -0.03210402
0000d0 1b 45 23 bc 4b 3f d0 bb 3b 52 8a bc de 71 34 bc
       -0.0099652065 -0.0063552014 -0.016884914 -0.011013476
0000e0 59 bd 3a bd d1 a9 c2 bb ad 06 09 3b eb a8 09 bc
       -0.045590732 -0.005940654 0.002090852 -0.00840209
0000f0 28 d0 5c bc 51 ad 9e bd 69 b1 f3 3c c5 27 eb 3c
       -0.013477363 -0.07747901 0.029747682 0.028705487
000100 19 fd 8d bc 03 80 94 ba 98 0f ab bd 00 22 e7 3c
       -0.0173326 -0.0011329654 -0.08352584 0.028214455
000110 48 a7 bf bc 1c 11 af 3b 07 f0 1b 3d a6 d7 47 bc
       -0.023395196 0.005342616 0.038070705 -0.012197411
000120 3e 80 90 bc f9 2d 38 bd b0 fc b0 3b 8e ae 90 bd
       -0.017639276 -0.044965718 0.0054012164 -0.07064544
000130 02 00 c4 bc 2c 49 ef bc 31 5b 24 bd 9a 6b 04 bd
       -0.023925785 -0.029209696 -0.04012603 -0.03232918
000140 d4 ee 74 3c 54 a4 3e bd 63 03 89 3c e7 7c 22 bd
       0.014949519 -0.046543434 0.016725248 -0.039669897
000150 60 02 4a bc b9 ce 85 3d 9f d5 cf bc d5 5f bb bc
       -0.012329668 0.0653357 -0.025370417 -0.022872845
000160 2f aa 8f 3b b9 93 df b8 5c 87 d3 3c 60 53 61 3b
       0.004384301 -0.00010660984 0.02582138 0.003438197
000170 17 e6 d8 3c c2 8e 7c bd e7 ed bc bc ad 3a 00 bc
       0.026476903 -0.061659582 -0.02306266 -0.007826489
000180 b3 6d 53 3c 05 14 02 3c b7 d5 cd 3c 05 0b 24 bc
       0.012904572 0.007939343 0.025126321 -0.010012393
000190 c1 76 68 bd e1 8d 9c bc 17 76 a1 3b ff be fa bc
       -0.056753878 -0.019110622 0.0049274075 -0.030608652
0001a0 5d 08 9e bb dc fc e9 3b a1 06 9e 3d d7 25 06 bd
       -0.0048227743 0.007140739 0.07716108 -0.03275093
0001b0 bc 73 58 bd dd 96 65 3d 1e b2 06 3d 0a c8 ed 3c
       -0.052844748 0.056052078 0.03288471 0.02902605
0001c0 2a 2b dd 3c 67 46 77 3c a6 db b1 bd 01 f5 18 3c
       0.026998121 0.015092469 -0.08684473 0.009335757
0001d0 d5 90 43 3c 5e 94 44 3d b8 8f 1e 3d 4d 46 38 3d
       0.011936386 0.047993056 0.03871128 0.04498892
0001e0 64 59 0b 3d 55 de 9b bc 20 58 e7 3b 80 ab 57 3c
       0.034020796 -0.019026915 0.007060066 0.013163447
0001f0 d3 52 d3 3c 3a da 02 3d d6 d8 59 3c 6d 1e 04 3c
       0.02579633 0.0319464 0.013296327 0.008063895
000200 b6 39 c8 bc b1 ef 1a 3c e4 ad f0 bb bf 4a 3b bd
       -0.024441581 0.009456561 -0.007344948 -0.04572558
000210 9d 40 1c 3c 7c e1 f1 3c 49 78 0e bc b0 89 57 bc
       0.009536889 0.029526465 -0.00869567 -0.013155386
000220 0c 9b 16 bd 8e 7a 76 3c 80 79 e7 3c 92 5b 83 bd
       -0.036768958 0.015043868 0.028256178 -0.0641395
000230 50 39 86 bb d4 95 a3 3c ef 5e 02 3c 6b 6d 50 3c
       -0.0040961877 0.019968905 0.007957204 0.0127214
000240 d3 62 31 bd 11 95 2e 3c 92 7c c9 bb 66 6f 3a 3d
       -0.043307137 0.010655657 -0.006148883 0.045516394
000250 7c 2b 46 bd c4 b2 a6 ba 5a 5a f2 3b 4b cb 8c bc
       -0.048381314 -0.0012718071 0.0073960247 -0.017186781
000260 bd 37 35 3d 68 02 79 ba 3d 49 72 bb 1e bb 51 3b
       0.04424261 -0.0009498955 -0.0036969923 0.00320024
000270 6c 96 4d bd f8 aa 37 bb 06 9f 6e 3d f9 2c e4 3b
       -0.05019228 -0.002802549 0.058257125 0.006963369
000280 f6 40 14 bc ec 4d 78 3d c4 ab 99 bb ab 2d f0 3b
       -0.009048691 0.060621187 -0.0046896655 0.007329663
000290 08 d7 01 3d e8 2b 32 bc 54 1a 0f 3d a1 ac 42 3d
       0.03169921 -0.010874726 0.034937218 0.047527913
0002a0 7b 96 1b 3d 0f a6 d3 b9 2e 4c 9e bb 24 70 7a 3d
       0.037985306 -0.0004036878 -0.0048308587 0.061142102
0002b0 fb 19 71 3c 64 15 7d ba 28 37 14 bd c3 28 65 bd
       0.014715667 -0.00096543715 -0.036185414 -0.055947077
0002c0 91 ae 01 bc d1 21 0a bd a8 7d 47 3d 13 cd 07 bc
       -0.007915155 -0.033723656 0.04870382 -0.00828864
0002d0 3f 9c f7 bc 42 3a 88 bc e8 26 e4 bc e2 88 12 3d
       -0.030225871 -0.016629342 -0.027850583 0.035775073
0002e0 76 b4 b6 3a f5 f8 10 3c 88 36 07 bd eb 4b 37 3c
       0.001393928 0.0088484185 -0.03301099 0.011187534
0002f0 d1 71 41 3c 3a f6 5c 3d a6 da 8b 3d f6 67 87 bc
       0.011806921 0.053945757 0.06828813 -0.016529065
000300 34 95 ae 3c 4b cb 77 bc a1 bd 5a bd 34 bd 9a bd
       0.02131138 -0.015124152 -0.0534035 -0.07555619
000310 cf b8 48 bc ab dd d9 3a 09 7f 4e bc f1 8b 93 bb
       -0.012251093 0.0016621848 -0.01260353 -0.0045027663
000320 22 13 aa bd 8d 8d 57 3b 26 4b 1b bd 39 16 91 bb
       -0.083044305 0.0032890767 -0.037913464 -0.004427698
000330 2c a9 99 bc 51 d5 ca 3c f8 d3 1f 3d f4 1b 53 bc
       -0.018757425 0.02475992 0.03902051 -0.0128850825
000340 1b 31 14 bd 99 bd 8a 3c 3a 8d 88 bc a5 06 9f bc
       -0.036179643 0.01693611 -0.016668905 -0.019412348
000350 df e1 40 3c 30 b4 ad 3c 31 7f 74 3d 1a 56 3b bc
       0.011772602 0.021204084 0.05969161 -0.011434102
000360 98 6f 40 3d d4 99 bf 3c df 91 75 3d 31 16 4b 3d
       0.046981424 0.02338878 0.059953567 0.04958171
000370 11 b0 a7 bc 84 07 07 3c d0 a2 80 bc fc 87 0a 3d
       -0.020469697 0.008241538 -0.015702635 0.03382109
000380 63 b3 67 bc 35 1f b1 3c 60 3a 24 bc c7 68 8b bc
       -0.01414189 0.021621326 -0.010023683 -0.017017735
000390 8a 0b 13 3c 03 37 ac 3c 4d ec c4 3c 69 d4 0b bc
       0.008974919 0.021022325 0.024038458 -0.008534529
0003a0 7b 0e 60 3d 58 a3 4f 3c 4e 61 7a 3d 4f 6f 11 bd
       0.05470131 0.0126732215 0.061127953 -0.035506543
0003b0 0b 59 83 3d 22 b5 af bc 98 6f 83 bc 47 3c be b9
       0.06413468 -0.021448676 -0.016044423 -0.00036284534
0003c0 ab 53 7e 3d dc c9 03 bd bb 0c ff bc e6 bf 4a bc
       0.06209151 -0.03217493 -0.031134 -0.012374854
0003d0 a8 08 78 3b c8 6d 44 bd 9e ca 30 3d 0e 0d f2 3c
       0.0037846956 -0.047956258 0.04316198 0.02954724
0003e0 bd e1 f2 ba 5d 0c e6 bc 67 4d f4 3a 48 34 1c bc
       -0.001853041 -0.028082067 0.001863879 -0.009533949
0003f0 9b 38 8d 3c 11 fa 73 3c 73 35 12 3c 1e e6 42 3b
       0.017238906 0.014891163 0.008923876 0.0029739211

layers.0.b f4 [64]
000000 51 78 79 3f 8d 9d 7e 3f 69 17 7e 3f 02 85 7c 3f
       0.97449213 0.99459153 0.9925447 0.98640454
000010 b4 15 81 3f b3 6b 80 3f ad c8 7d 3f 17 26 80 3f
       1.0084748 1.0032867 0.9913433 1.0011624
000020 69 59 7f 3f 87 60 84 3f ea a7 7b 3f b8 d2 81 3f
       0.99745804 1.0341958 0.9830309 1.0142431
000030 56 b2 7d 3f c6 a1 80 3f 8c 45 7c 3f d9 bd 7f 3f
       0.99100244 1.0049369 0.9854362 0.9989906
000040 ee 14 7a 3f e2 a8 7f 3f ea 04 7f 3f aa 93 76 3f
       0.97688186 0.9986707 0.99616873 0.9631907
000050 8a 8d 80 3f 8e 43 80 3f fa b8 7f 3f 6b 01 79 3f
       1.0043194 1.0020616 0.99891627 0.9726779
000060 a3 45 81 3f e0 ed 73 3f fb 47 83 3f d4 75 80 3f
       1.0099376 0.95284843 1.0256342 1.0035958
000070 37 98 81 3f c0 1a 7f 3f 46 db 7b 3f 4b 6c 7c 3f
       1.0124577 0.9965019 0.9838146 0.9860274
000080 07 4d 81 3f 84 36 7b 3f cb 35 81 3f 37 6f 80 3f
       1.0101632 0.9813006 1.0094541 1.003394
000090 eb 38 80 3f bd 95 7e 3f e4 16 7d 3f 16 b2 80 3f
       1.001737 0.9944723 0.98863053 1.0054348
0000a0 ba 57 7d 3f 8b be 82 3f 37 6c 79 3f d8 bb 80 3f
       0.98961985 1.0214399 0.9743075 1.0057325
0000b0 41 50 7f 3f fd a4 81 3f e3 07 81 3f cf de 7e 3f
       0.9973183 1.0128475 1.0080532 0.9955873
0000c0 79 8f 80 3f 56 88 75 3f 93 64 7d 3f 7a d0 7b 3f
       1.0043784 0.9591116 0.9898159 0.98364985
0000d0 4a 7b 81 3f b7 0c 82 3f af c0 7e 3f 11 cf 80 3f
       1.011575 1.016013 0.9951276 1.0063192
0000e0 84 75 7c 3f 7d 43 7f 3f 7a aa 80 3f 62 bb 7d 3f
       0.98616815 0.99712354 1.0052025 0.9911405
0000f0 84 f3 71 3f 53 bd 7b 3f 85 01 7b 3f 57 41 7e 3f
       0.945122 0.9833576 0.98049194 0.9931845

layers.1.w f4 [64, 64, 4, 3]
000000 39 eb 17 bc d3 d1 e6 bb a3 2b e4 bb 6b dd 88 ba
       -0.00927239 -0.007044056 -0.0069632097 -0.0010441964
000010 ed db eb bb 17 8d eb bb 66 0a 30 bc 24 66 03 bc
       -0.007197848 -0.00718845 -0.010744667 -0.008019958
000020 35 72 1b 3b 6b 92 0e 3c d7 98 21 bc f3 d2 3d bc
       0.0023719196 0.008701901 -0.0098631 -0.011585939
000030 a8 6e 80 ba 54 44 b0 3b c9 3b 09 3c e6 ca af bb
       -0.0009798603 0.005379239 0.00837607 -0.0053647636
000040 d5 08 85 bb c3 95 5a bb 32 13 ca 3b 07 7a 3a 3c
       -0.0040598908 -0.0033353425 0.006166839 0.011381633
000050 dd db 81 3a e3 09 04 bb d8 6f a6 bb 5f 55 31 bb
       0.0009907443 -0.0020147495 -0.005079251 -0.0027058942
000060 ef 34 1e 3b 40 50 da ba 1a 5b d8 bb 73 93 a4 39
       0.0024140438 -0.0016655996 -0.006602657 0.00031390376
000070 2b 42 12 bc fe d0 15 bb 7e 18 5c 3b 35 0a 41 b9
       -0.0089269085 -0.0022860165 0.0033583934 -0.00018409717
000080 23 9a 88 3b a2 e8 77 3b 12 2d ed 3a b7 55 19 37
       0.004168765 0.003782787 0.0018095097 9.139468e-06
000090 63 a0 00 bc 31 be 8e 3b 67 55 ef bb 63 e0 c9 ba
       -0.007850739 0.0043561687 -0.007303882 -0.0015401955
0000a0 5d fb e3 bb 6e 93 00 ba b2 6a 13 3c e1 00 a6 3a
       -0.006957455 -0.0004904781 0.008997606 0.0012665057
0000b0 96 72 d1 ba e9 24 a9 3b d0 5e ce 3a a2 fa 1b 3c
       -0.0015979584 0.0051618707 0.0015744809 0.009520205
0000c0 6e 2d a0 3b c3 8e ca b9 1f b3 8e 3b 0e e2 db 3a
       0.004888228 -0.00038634808 0.004354849 0.0016775744
0000d0 57 a8 41 3c 1f 22 45 3b f0 72 b1 bb 2f b3 15 ba
       0.0118199205 0.0030080152 -0.005415313 -0.00057105994
0000e0 bc 3c 72 bb 1d 78 ac 3b 41 9c 6d bb 70 d2 e7 3b
       -0.003696247 0.005263342 -0.0036256465 0.0070746467
0000f0 f8 b0 bb 3b 1c 28 b5 bb 0c 9d b6 bb ce 6f c2 bb
       0.0057278834 -0.005528463 -0.0055729207 -0.0059337383
000100 db 85 46 bb e8 8e 79 3b 2d d1 b9 38 3e 34 23 3b
       -0.0030292186 0.0038079564 8.8604495e-05 0.0024902965
000110 71 1b 6b 3b 12 1f dc bb ad 1e 57 bc 30 e9 67 ba
       0.003587451 -0.006717571 -0.013129872 -0.00088466983
000120 ef 65 2d 3b 57 ef 54 bc d4 41 00 3b e7 ba b8 bb
       0.0026458462 -0.012996516 0.0019570487 -0.005637515
000130 c1 72 7c bb e0 e3 ee 3b 62 28 0f 3b cb 44 a9 3b
       -0.0038520547 0.0072903484 0.0021844138 0.0051656715
000140 9a 1f 15 3b 7d 0d 9a 3b 0b 87 84 bb 59 69 0d bc
       0.0022754432 0.004701315 -0.0040444187 -0.008631074
000150 98 ef 46 3b 3f ca f8 3a 0e ca c2 ba 93 e8 fa ba
       0.0030355211 0.0018981172 -0.0014861242 -0.0019142799
000160 7e ec ba ba e6 94 9e bb 38 8a 06 bc 1e a9 6c bb
       -0.0014261154 -0.0048395274 -0.008211665 -0.0036111544
000170 82 ae aa ba 42 e6 e7 3b 0c db 0c bc b9 b2 a5 3b
       -0.0013021978 0.0070770094 -0.008597147 0.005056706
000180 44 14 a3 bb 59 0d 2d bb e6 37 03 39 11 85 5a bb
       -0.004976781 -0.002640566 0.00012513957 -0.0033343474
000190 be d8 13 3b 02 7d cc 3b 8c af 75 bb ec 1b 90 3a
       0.0022559608 0.006240488 -0.0037488667 0.001099465
0001a0 e1 ec 2c bc 9b c7 f8 39 ef d3 3b ba c6 54 34 3c
       -0.010554523 0.00047450964 -0.00071650645 0.01100654
0001b0 85 5a 5d bb ae 07 08 3c 7a 55 25 ba d7 db 3f bb
       -0.0033775878 0.008302612 -0.00063069875 -0.0029275322
0001c0 99 15 92 bb a0 d3 2d 3c c1 e7 e5 bb 89 24 c9 bb
       -0.004458141 0.010609537 -0.0070161526 -0.0061383885
0001d0 c8 e0 e1 ba d9 a8 a7 bb d2 1f ba bb f7 e6 f1 3b
       -0.0017233128 -0.0051165638 -0.005680063 0.0073822695
0001e0 1a 8e 70 bb 9f 86 42 3a 6e bc 2a 3c fc d9 d2 3b
       -0.0036705793 0.0007420573 0.010420902 0.006434677
0001f0 47 5d 2f 3c 82 18 c9 ba 6f e3 5d 3a 7e ee 09 3c
       0.010703391 -0.0015342387 0.0008464371 0.008418677
000200 25 da 29 3a 24 5b 8d 3b d8 53 ea bb 36 3b 26 bb
       0.00064793444 0.0043138433 -0.0071511082 -0.0025364882
000210 e4 4b f3 b9 ce 50 95 3a 7d 54 a9 3a c2 02 1c bc
       -0.00046405115 0.001139188 0.0012918856 -0.009522142
000220 31 7d 1d bb d4 91 17 bb 98 58 57 3b 74 54 3d ba
       -0.0024030919 -0.0023127692 0.0032859202 -0.00072223623
000230 cf f6 ad 3c c5 35 df ba a4 7a 9b 3b 0c 5e 79 ba
       0.021235852 -0.0017029574 0.0047448445 -0.000951261
000240 0a 50 e6 39 e9 da e5 ba f2 66 26 3c e3 10 27 3b
       0.00043928652 -0.0017536554 0.01015638 0.0025492243
000250 0a 68 4d bb 7c e9 02 bc ba 7a f6 ba fd 5d 0d bc
       -0.003134253 -0.007990237 -0.0018804886 -0.008628366
000260 a8 c5 d5 b9 b8 b0 26 3a 4b 23 00 3c 43 9a d0 ba
       -0.0004077379 0.00063587306 0.0078209145 -0.0015915114
000270 44 7c b0 3a 60 4b 89 3b f5 9d 10 3c e2 21 84 3a
       0.0013464768 0.0041898936 0.008826722 0.0010080899
000280 8e 7e ac bb d7 1c 2b 39 92 de f6 3b 42 18 cd 38
       -0.00526411 0.00016318574 0.0075338567 9.77968e-05
000290 28 aa 9d 3b 06 7a 4e 3b c0 8d df 3b 5a e5 0a 3a
       0.004811544 0.0031505837 0.006822318 0.0005298458
0002a0 77 d2 8c 3b 18 39 66 3b df 24 42 ba 20 4d 5f bb
       0.0042975503 0.0035129245 -0.0007406007 -0.003407307
0002b0 ab df 77 bb 37 72 d6 3a 21 4f 9a bb 30 79 19 3a
       -0.0037822525 0.0016360943 -0.00470914 0.0005854545
0002c0 35 bb 0e bb bf c5 13 3c 3a 8d 10 3a 10 56 23 3c
       -0.0021779065 0.009019314 0.00055142085 0.009969249
0002d0 88 83 d4 37 e8 e0 b2 b9 f0 06 5f bc c4 61 12 3b
       2.5333618e-05 -0.00034118374 -0.013612494 0.0022336105
0002e0 3d 18 45 39 a5 dd 26 3c 2b 78 ba 3a 93 10 36 3c
       0.00018796413 0.01018468 0.0014226487 0.01111235
0002f0 9d 68 0b bb 9d da 0a 3c 01 c1 de 3a ef 36 87 3c
       -0.0021272071 0.008474973 0.0016994776 0.016505687
000300 db 84 b9 ba 51 31 e1 ba 74 ed 39 3b 25 cf b4 bb
       -0.0014153974 -0.0017180835 0.0028370293 -0.0055178576
000310 6a db 39 3b 83 a1 79 ba b4 32 34 bc 17 d0 84 bb
       0.002835954 -0.00095226633 -0.010998417 -0.0040531266
000320 bc 3e 0a 3b 12 7e d2 3b db cd 9a bb 24 e4 3d bc
       0.0021094522 0.00642372 -0.004724247 -0.0115900375
000330 f5 75 5b 3b 36 a6 5e 3a 32 3d 7d 3b 51 86 43 3c
       0.0033487056 0.0008493395 0.0038641212 0.011933879
000340 d7 c9 11 bb f4 e5 fa 3b 5e 53 1b 3c 36 3a 92 3b
       -0.002224555 0.007656807 0.0094803255 0.0044625057
000350 65 52 e4 ba 4c e1 eb 38 d0 27 fd 3a d1 e8 bf bb
       -0.0017419575 0.00011247638 0.0019314233 -0.0058566113
000360 bd 64 5e bc 23 a9 ce bb 7c 97 16 ba 48 a2 9c 3b
       -0.013573823 -0.0063067838 -0.0005744619 0.0047800876
000370 99 85 ba ba 76 84 1c ba 70 6a 8a bb f2 89 2d 3b
       -0.0014230489 -0.0005970666 -0.004224114 0.0026479927
000380 4e 41 cd 3b 40 bb 2e bc 59 cd 0a bb ec de 9b ba
       0.0062638884 -0.010664761 -0.0021179526 -0.0011891997
000390 99 86 31 3b 4f 73 3d 39 e6 eb e2 3b 1a 7d 91 3b
       0.0027088283 0.000180674 0.006925094 0.004439962
0003a0 13 f7 29 bb 9a f2 85 3a 34 ab 43 3a b0 08 22 bc
       -0.0025934621 0.0010219396 0.0007464171 -0.009889767
0003b0 80 ca cb 3a 0c 9a 3d 3b 77 a9 f5 bb 89 e2 ca bb
       0.0015548021 0.002893093 -0.0074970084 -0.006191556
0003c0 a2 e2 74 39 19 92 53 3c 81 97 0b 3b dc 32 d1 3b
       0.0002335408 0.01291325 0.002130002 0.0063842367
0003d0 d2 e0 06 bb 89 98 28 3b 2f fe ff bb e7 c4 c6 bb
       -0.002058078 0.0025725684 -0.0078122835 -0.006065953
0003e0 72 45 0e bb 39 3d a9 3b 27 db 01 ba 7b 74 c3 3a
       -0.0021708873 0.005164769 -0.0004953616 0.0014912033
0003f0 a4 96 8a bc 38 7f 11 bc 4f 1e 02 3b 9d 6b 24 3c
       -0.016917534 -0.008880429 0.001985449 0.010035423

layers.1.b f4 [64]
000000 fb e3 81 3f 13 f9 7d 3f 43 9c 7e 3f 2c fc 7f 3f
       1.0147699 0.9920818 0.99457186 0.9999416
000010 7d 17 80 3f 9d e4 7d 3f 2f a5 80 3f 3d f7 7b 3f
       1.0007168 0.9917696 1.005041 0.9842413
000020 8d bf 82 3f a9 34 81 3f f1 24 7b 3f 84 ed 7c 3f
       1.0214707 1.0094196 0.98103243 0.9879992
000030 51 29 7f 3f 9b 4c 7f 3f 80 f7 7e 3f 06 1c 81 3f
       0.9967242 0.99726266 0.99596405 1.0086677
000040 d6 a0 81 3f 16 c7 82 3f bf 49 81 3f bc 72 80 3f
       1.0127208 1.0217006 1.010063 1.0035014
000050 26 36 81 3f 5f f4 7e 3f b9 ea 7c 3f 13 27 7e 3f
       1.009465 0.9959163 0.9879566 0.9927837
000060 92 e4 80 3f 6d 9c 7e 3f 32 a5 80 3f 1d 9b 80 3f
       1.0069754 0.99457437 1.0050414 1.0047337
000070 b7 31 81 3f a1 d2 79 3f d0 cb 7d 3f 59 d7 7e 3f
       1.0093297 0.9758702 0.9913912 0.99547344
000080 cf fc 7c 3f 4b 7d 7e 3f 61 0a 80 3f 5c 52 80 3f
       0.98823255 0.9940993 1.0003167 1.0025134
000090 b5 9f 80 3f 42 1e 81 3f 9f 1d 82 3f fc 70 80 3f
       1.0048739 1.0087359 1.016529 1.003448
0000a0 96 79 7e 3f 4d b0 7c 3f f0 2b 7e 3f d4 a6 7f 3f
       0.99404275 0.98706514 0.99285793 0.99863935
0000b0 d8 fd 7b 3f 30 d1 7c 3f c2 3c 81 3f c6 92 7b 3f
       0.9843421 0.98756695 1.0096667 0.98270833
0000c0 c7 3e 82 3f 8e 76 78 3f 67 45 80 3f 28 22 81 3f
       1.0175408 0.970559 1.002118 1.0088549
0000d0 57 79 7c 3f 74 b6 80 3f 51 0c 7f 3f 97 8d 7b 3f
       0.9862265 1.005568 0.9962817 0.98262924
0000e0 9a 9e 7f 3f 59 76 81 3f 8a ee 7b 3f 03 ad 81 3f
       0.9985138 1.0114242 0.98410857 1.0130924
0000f0 b5 18 7d 3f c2 96 80 3f 01 c8 81 3f fa 8a 81 3f
       0.98865825 1.0046008 1.0139161 1.0120537

layers.2.w f4 [512, 10]
000000 9b d1 6c 3b e6 14 19 3b 7b d0 f7 3b 47 7c 44 3c
       0.0036135677 0.0023358404 0.0075626946 0.011992521
000010 93 af 34 ba fa 3c bd 3b 39 76 3c 3c 3f 7a 6b 3b
       -0.00068926177 0.0057750912 0.011502796 0.0035931019
000020 81 3d da bb 05 ad 81 bb 08 72 dd 3b 4c f4 7c 3b
       -0.006660164 -0.003957393 0.0067579783 0.003859776
000030 cf 02 8b b9 00 a2 2c bc 8d 67 b1 3a 53 1e dd 3b
       -0.0002651424 -0.010536671 0.0013534889 0.0067479997
000040 76 f2 81 3a 0f 68 1f bb 4f 74 04 3c a0 3b 70 3b
       0.0009914178 -0.0024323498 0.008084371 0.0036656633
000050 72 42 47 3c d0 33 52 3b ba dd ed 3b 56 78 e5 37
       0.012161838 0.003207434 0.007259098 2.7354963e-05
000060 bc e1 e0 39 9f 49 14 3b f8 74 62 3b 63 b7 65 bb
       0.00042892795 0.002262689 0.0034554582 -0.0035051934
000070 d0 0d e7 3a 0c eb 8f 3b e6 bb d3 3a 17 91 cb b9
       0.0017628018 0.0043920334 0.001615402 -0.00038827278
000080 3c 78 00 3a 42 e4 b5 3a f4 17 aa bc 47 5f 24 bc
       0.0004900729 0.001387723 -0.020763375 -0.0100324815
000090 90 06 07 3b eb 44 21 3b 7b 15 38 bb e6 e5 18 3b
       0.0020603277 0.0024607729 -0.0028088975 0.002333039
0000a0 f0 09 72 bb 39 0c 59 bb 2b 77 16 bc 94 84 0b 3b
       -0.0036932193 -0.0033118858 -0.009183685 0.002128874
0000b0 25 3a e7 bb 41 cb 36 bb 20 32 e9 3b 46 70 94 3b
       -0.007056492 -0.0027892145 0.007116571 0.0045299856
0000c0 e8 b2 7d bb d2 07 32 3b cd 49 d8 3b d4 9a ac b9
       -0.0038711373 0.0027165306 0.0066005946 -0.00032921752
0000d0 94 77 3e ba 78 49 b6 ba 82 82 a0 3a 8a 29 61 bb
       -0.00072657433 -0.0013907393 0.0012245926 -0.0034357035
0000e0 3c 58 86 3a de f5 e3 3a 22 1b 93 bc b4 1c a7 3b
       0.0010249685 0.0017392 -0.017957274 0.005099857
0000f0 5e ae 1b bc f6 ee 3a 3c e1 ee 2f bc b2 72 4d bb
       -0.009502022 0.011409512 -0.0107381055 -0.0031348881
000100 de 74 97 3b f2 cc 97 bb 02 20 3d 3a bd 7b c6 3b
       0.004622086 -0.0046325857 0.00072145474 0.006057231
000110 85 c0 ee ba c3 af 23 bc 16 bf a1 bb 25 94 13 bc
       -0.0018215334 -0.009990635 -0.0049361093 -0.009007488
000120 6e d6 3f 3b 1d 18 c4 3a 72 10 34 3b 6d 43 e6 3b
       0.0029272097 0.00149608 0.0027475622 0.0070270807
000130 91 80 29 bb 05 f6 14 b8 0f b3 ba ba 06 6c 65 3b
       -0.0025863985 -3.5515073e-05 -0.0014244037 0.0035007014
000140 99 32 60 ba 81 b6 4f ba 10 0e e2 3b 32 1e 0e bb
       -0.00085524615 -0.00079236185 0.006898649 -0.0021685478
000150 bb dc 72 3a 6b fb ff bb e8 9e 1a 3b 1c 48 b9 3b
       0.0009264459 -0.007811954 0.002359325 0.005654348
000160 c5 b4 24 3b 0e c5 91 3a be eb a9 bb 58 b5 00 3b
       0.002513216 0.0011121349 -0.0051855734 0.001963934
000170 50 df 97 bb 0b d7 47 bb f5 55 f0 3a de a0 98 3b
       -0.004634775 -0.0030493166 0.0018336164 0.0046578487
000180 6f 30 fc bb 9d 34 b0 39 e0 68 2b bc cc 64 15 bc
       -0.0076962034 0.00033608536 -0.010462016 -0.00911827
000190 f3 0b 9e 3b be 2e 1e bc 0f 8d 1c bc f8 fb a2 bb
       0.004823202 -0.009654699 -0.009555115 -0.0049738847
0001a0 dc 7c e6 3b 35 89 a6 3a 79 a6 95 3a 85 07 95 bb
       0.0070339274 0.0012705686 0.001141741 -0.0045480155
0001b0 7b bf a2 ba 5a 8d 96 3b 58 31 aa 3c 63 56 0b 3c
       -0.0012416685 0.004594487 0.020775482 0.008504483
0001c0 a0 a3 65 ba e0 0b 2a ba 8f d2 db bb c4 e4 f1 bb
       -0.0008760039 -0.0006486755 -0.00670845 -0.0073820073
0001d0 c8 e2 ec bb 5a 71 16 3b b2 4d 83 bb a1 8d d7 bb
       -0.007229183 0.0022955746 -0.0040070647 -0.006578163
0001e0 83 0b 33 bc 40 f2 22 3a 99 45 68 3b b5 02 7e 3c
       -0.010928038 0.00062159076 0.0035441874 0.015503575
0001f0 ff dd bd ba 82 67 93 3a 19 ef 1b 3b cd fe a0 ba
       -0.0014485716 0.0011246058 0.0023793636 -0.0012282968
000200 18 66 4e bc 43 53 90 3b ad 6b 37 bb 8c 4e 60 3b
       -0.012597583 0.004404457 -0.0027987764 0.0034226505
000210 2b c5 e2 bb 40 db c9 3b a2 12 bb bb 68 1d f0 39
       -0.006920477 0.00616017 -0.0057090083 0.00045798277
000220 3d db a3 bb a9 00 04 b9 bb 56 6d 3b 45 1e 3b bc
       -0.0050005005 -0.00012588747 0.0036215025 -0.011420791
000230 c9 cd 62 3c cd 5b a4 3b 9f a6 eb ba 09 32 15 bc
       0.013843008 0.0050158263 -0.0017978734 -0.009106168
000240 34 0f 34 bb 62 b5 e2 ba 52 28 1a 3b 06 f6 66 ba
       -0.0027474882 -0.0017296488 0.0023522568 -0.0008810464
000250 cf 39 85 3b b2 f4 7f bb c3 c0 90 3b 45 88 0e bc
       0.004065729 -0.0039055762 0.0044175102 -0.008699481
000260 84 73 97 3b 2f 0c ef bb 8b a5 08 3c a7 d9 bb bb
       0.004621925 -0.0072951536 0.00834025 -0.0057327333
000270 e3 aa 3b 3a f3 21 5b ba 77 e5 6d bb 93 18 fe bb
       0.0007158948 -0.0008359246 -0.0036300102 -0.0077543943
000280 1e 04 4e 39 be eb 4a bb 94 e2 99 bb 2c 6e be bc
       0.00019647225 -0.0030963267 -0.0046961997 -0.023245893
000290 64 66 e4 3a 90 24 52 bc 2b 77 66 bb aa 6e c1 39
       0.0017425534 -0.0128261 -0.0035166244 0.0003689428
0002a0 a7 d3 36 3c ec 98 b9 3b 9b 28 f2 bb b0 f8 8a 3b
       0.01115886 0.0056639817 -0.0073900945 0.0042410716
0002b0 c8 c3 b6 bb 67 33 d4 3a e2 fd 24 3b 59 7b 20 bb
       -0.005577538 0.0016189635 0.002517574 -0.0024487583
0002c0 c8 43 1a bc 02 51 b6 b9 92 d2 23 bb b1 03 c7 3b
       -0.009415574 -0.000347741 -0.0024997336 0.006073438
0002d0 d1 24 42 3c 41 a2 b1 bb 82 52 22 3a 6a ea 3b 3b
       0.011849598 -0.0054209535 0.0006192104 0.0028673657
0002e0 98 3d 49 bc 58 38 12 bc 8e 44 9d 3b a8 d7 ba bb
       -0.0122827515 -0.008924566 0.004799432 -0.0057019778
0002f0 15 a6 25 3b 26 7f df ba c4 9f b0 bb b3 cb 04 3b
       0.0025275995 -0.0017051443 -0.0053901393 0.0020263016
000300 7a 4c f9 3b b6 0c a8 b9 bd da 36 3c cb 91 7e 3b
       0.0076079937 -0.00032052927 0.01116055 0.0038844224
000310 23 38 8b 3b 33 ea f6 ba 54 cf 59 bc d5 a1 23 bc
       0.0042486354 -0.0018838107 -0.01329406 -0.009987314
000320 14 10 a0 3b 06 d5 80 3b 24 90 b0 3a 5a a2 8d ba
       0.004884729 0.0039316444 0.0013470692 -0.0010805831
000330 7c 1e 12 3b 04 29 1d bc 5c 11 af bb ab 40 8d 3b
       0.0022296002 -0.009592298 -0.0053426456 0.0043106875
000340 d8 8c 88 bc cc 41 51 3c 66 5c 92 3b 9a 1e 19 bc
       -0.016668722 0.012772035 0.004466581 -0.009345675
000350 37 bc 5f 3b 70 ff 04 3b d6 a4 e6 38 77 90 a5 3b
       0.0034139284 0.0020293854 0.00010997958 0.005052622
000360 b5 e1 b9 3b 2e 1f 56 b9 a4 b8 9f 3b 72 1a a2 ba
       0.0056726583 -0.00020420246 0.004874306 -0.00123675
000370 99 a2 18 ba 1f eb 35 ba 78 63 34 bc a3 dc 83 ba
       -0.0005822569 -0.0006939638 -0.011010043 -0.0010060262
000380 34 bb e3 3b 80 d5 7f bb a8 72 5a 3c 38 3f a1 3a
       0.0069498066 -0.0039037168 0.013333 0.0012302166
000390 26 50 80 3b 5f 8f 90 bb 12 66 72 3c 8e 77 1f 3c
       0.0039158044 -0.0044116224 0.014794843 0.009733094
0003a0 5d 39 33 bc 60 f6 4d bb 46 85 4a bc 4a 8e 17 bc
       -0.010938969 -0.0031427369 -0.012360876 -0.009250233
0003b0 5d 46 ce 3b 91 7a 58 bb 36 a2 a4 bb ab 27 e5 bb
       0.006295009 -0.003303204 -0.00502422 -0.006993254
0003c0 45 7c e6 3b 9d 1e 47 bc 31 8b 9d bc 8a 76 0e bc
       0.007033857 -0.012153295 -0.01923141 -0.008695254
0003d0 3b af b9 bb 56 a4 1f ba 64 32 3a bc e0 22 3a bc
       -0.005666641 -0.00060898566 -0.011364553 -0.011360854
0003e0 5f be 51 3c 43 ed 81 3b 03 7f e4 3b d4 59 a4 bb
       0.012801736 0.0039650514 0.006973149 -0.005015591
0003f0 15 ea 2b bc bb 3c 09 bc db 97 9f 3b d6 b4 27 bc
       -0.010492821 -0.008376296 0.0048703975 -0.010235986

layers.2.b f4 [10]
000000 7d d6 80 3f ed 66 7f 3f aa 58 81 3f 5d da 80 3f
       1.0065457 0.9976643 1.0105183 1.0066639
000010 99 2a 80 3f f4 bd 80 3f 67 8f 7d 3f 5a 7d 82 3f
       1.0013 1.0057969 0.9904694 1.0194504
000020 2a 0d 80 3f 37 1e 7e 3f
       1.0004017 0.99264854
