s2net-emg/saved/modeldictSTFT.pt (torch, 357327 bytes, 6 tensors)

layers.0.w f4 [64, 8, 4, 3]
00000000: f4c4 a6bc fef7 1dbc 9171 303c 0577 263d
00000010: 31e4 cdba fe2d b3bb 3648 27bc d7d6 733a
00000020: 2929 e739 db1f 2b3d 3fd3 523c 4a6b fb3b
00000030: 67e6 91bc d1ff 57bb 274c 993c 1a5d 6c3b
00000040: e9c7 503b 6c83 cd3b ec53 07bd 920c 4ebb
00000050: ff44 6dbc e9c8 c73c e973 1e3c 2d95 55bc
00000060: 1ef7 66bd 2ee8 5f3c 672a 823c 8257 033d
00000070: d0c4 e63b 0d88 123c e471 b1bd 3cd4 8f3c
00000080: b661 15bd 1cac 403d 4d21 f6bb 6920 9abc
00000090: 1e5f 1fbd 3358 9d3a 83f5 dc3c 5300 403d
000000a0: 7665 5b3b 9f07 ac3c 29e3 05bd aed5 6f3c
000000b0: 3044 9f3b bb27 143d 2853 09bb 145b 483c
000000c0: c310 cebc d498 583a 3bc8 833c 3a05 703c
000000d0: ad9a 353c fffa c93c c72d a0bc 3506 d3bb
000000e0: 6b34 133a 2dcf ab3c 00c8 063c 44c1 e2ba
000000f0: c743 003c 8674 1ebc 6049 9e3b dc5e 38bc
00000100: e07f 823a 3f38 ba3a cac3 313c 7770 743b
00000110: a0ee 2bbc 2211 9cbc 3567 9d3b 1ca9 103c
00000120: 7da8 50ba 3b4d 833c d8d8 cb3c dfd7 b33c
00000130: 2157 553b d450 733c 4d09 543c d21e ed3b
00000140: 17af 733b 0541 533c f8ba cbbb 3258 953c
00000150: 3219 9eba a339 843b 5875 35bc a8c6 4c3a
00000160: 49b2 733b a555 7b3c 10c6 e539 6807 84b9
00000170: 27b4 cbbb 5d94 5d3b 9d0c 90bc ef51 f239
00000180: 3862 1a3c 2824 80bc b52e b8bc 4158 8c3b
00000190: f5db 0b3d c26f fbbb ad3c ef3c 6727 50bc
000001a0: 8372 08bc f221 253c 149e b03c d20c 293d
000001b0: ca43 a03b 3e85 a1bb baf3 81bc f021 bdbc
000001c0: 1908 ae3c 5a09 623c a2a4 8abb 11b2 cfbc
000001d0: 0bfc a5bb 0044 1ebc c68e bf3c 3d8e ee3c
000001e0: c38c b23b dc98 f33b c87a 813c 9786 243c
000001f0: f2ba 5e3b cbdc bbbc e332 17bc 443f ae3b
00000200: 7d32 d8bb ab74 2e3c b962 97bc 3f1d d6bc
00000210: 7003 2ebc 718b d73b b50a 533c e533 ba3c
00000220: cdbb b9bb 32d5 a73c 78ab 083c 092d 8bbb
00000230: e94a a13c 3d25 efbb c25c 1bbb 8863 c23b
00000240: 3810 37bc 4a73 bcbb b4c9 413d 73de e7ba
00000250: 7e8e 063c c3aa febc 9df7 6d3c b921 593c
00000260: 1100 1f3d e19a 51bb be1f c2bb d9d3 09bd
00000270: 671c 373b fbbb 56bc c9b9 ecbc b115 5bbc
00000280: b1f9 b13c 43d1 873b 900c 3a3b 80e9 85bc
00000290: 0e0a d0bc a55a 85b9 b32d 683c 48e9 173d
000002a0: 5e5a 58ba 271b 3e3c 9551 dc3c 0004 dc3b
000002b0: a10a 893c d9e5 8b3b 273b 47bc cb73 2dbc
000002c0: 694b b53c dd90 a6bb 6ecf 45bc c3a4 183c
000002d0: 4bc0 2cbc b08d 90ba 6a38 20bc 0c79 a83b
000002e0: 6c37 6cbc 07f2 0d3d d1e5 92bc 10c6 4a3c
000002f0: 7c44 0b3c 129c f1bc 2b46 be3c 3274 b2bc
00000300: 43be 733b 74a2 483c c84c 293d 0d89 cf3c
00000310: 7858 10bd f264 39bc a3aa 3f3c a2e4 c33c
00000320: 934c 983c 991a 3c3c 7e4f c53c 0048 00bc
00000330: 130e 83bc d7ad b03c 64be a33c 71ed d4bc
00000340: 08c6 8ebc 93c4 f3bc 8114 08b8 f0e2 7b3c
00000350: bfd3 573c da39 633c aa57 01bc 11bc 13bd
00000360: 82f8 533c 61f5 0e3d 715f 043d 460d 3aba
00000370: b64b 01bd cfef 0ebc 3570 3e3c 54e6 453d
00000380: 8430 7b3c 28a7 88bc 7b82 94bd 1aab c6bc
00000390: 1757 353a 55dd 3dbd 36fa 6a3c da1e a1bb
000003a0: 0f2f b23c 2b7b 323c 9de4 b3bb 58e9 71bd
000003b0: 55a9 823b f9dc 3a3c 6d22 173c 34cb 90bb
000003c0: 6bf5 f9bc 4444 dd3c e9c3 c03a 60c7 903c
000003d0: 1eef f2bb da96 843c 2b79 283c 4660 d83c
000003e0: b7d8 ed3c 80f7 6e3c 2149 363b 6f43 d23a
000003f0: d216 23bc a0b7 04bc 3ffd 0bbd a2d4 9abb
-0.020357586 -0.0096416455 0.010769264 0.04064085 -0.0015708265 -0.005468129 -0.0102100875 0.0009301728
0.0004409042 0.041778427 0.012867748 0.007672702 -0.01781006 -0.0032958875 0.01871307 0.0036066235
0.0031857437 0.00627177 -0.03303902 -0.0031440598 -0.014481782 0.024387794 0.00967119 -0.013036055
-0.056388013 0.013666196 0.01588936 0.032065876 0.007042505 0.00894357 -0.08664301 0.017557256
-0.036470138 0.047039136 -0.007511294 -0.018814282 -0.03890907 0.0012004435 0.026972538 0.04687531
0.0033477223 0.020999728 -0.03268734 0.014638348 0.0048604235 0.036170702 -0.0020954106 0.012228746
-0.025154477 0.0008262519 0.016086688 0.014649684 0.011084241 0.024655817 -0.019553078 -0.006439949
0.0005615416 0.020972813 0.008226395 -0.0017300029 0.007828659 -0.009671336 0.0048305243 -0.011253085
0.0009956323 0.0014207436 0.010849902 0.003729848 -0.010493904 -0.019051138 0.004803563 0.008829381
-0.0007959677 0.016028037 0.024883673 0.021953521 0.0032553154 0.014850814 0.012941671 0.00723634
0.003718322 0.01289392 -0.006217357 0.018230531 -0.0012061952 0.004035191 -0.01107534 0.00078115845
0.0037185124 0.0153402435 0.00043825852 -0.0002518252 -0.006216544 0.0033810355 -0.01758414 0.00046218882
0.009422831 -0.01564224 -0.02248321 0.0042829816 0.034145314 -0.0076732347 0.029203737 -0.012704707
-0.008328083 0.010078894 0.021559753 0.041271992 0.0048908936 -0.004929214 -0.015863288 -0.023087472
0.021244096 0.013796175 -0.0042310515 -0.025353463 -0.0050654463 -0.009659767 0.02338351 0.029120559
0.005448909 0.0074339937 0.015805617 0.010041854 0.003398594 -0.02293243 -0.009228441 0.0053176004
-0.0065978155 0.010647933 -0.018479692 -0.026136992 -0.010620937 0.006577902 0.012880971 0.022729823
-0.0056681396 0.020487402 0.008341663 -0.004247312 0.01968904 -0.0072981403 -0.002370641 0.005932275
-0.0111733 -0.005751048 0.0473115 -0.0017690196 0.008212684 -0.031087285 0.014524368 0.013252669
0.038818423 -0.0031983184 -0.005924194 -0.0336493 0.0027940513 -0.0131063415 -0.028897183 -0.013371871
0.021725507 0.004144819 0.0028388835 -0.016346693 -0.02539542 -0.00025435272 0.014171052 0.03708771
-0.0008253212 0.011603153 0.02689437 0.006714344 0.016728701 0.0042693433 -0.012160099 -0.010586689
0.022130685 -0.005083187 -0.012073381 0.009316626 -0.010543893 -0.0011028554 -0.009779075 0.005141383
-0.0144175105 0.034654643 -0.01793185 0.012376323 0.008500215 -0.029493365 0.023226818 -0.021783922
0.0037192262 0.012245763 0.04133299 0.025333906 -0.03524062 -0.011315571 0.011698398 0.023912732
0.018591201 0.011480951 0.024085756 -0.007829666 -0.015997922 0.021567268 0.019988246 -0.025992127
-0.017428413 -0.02975682 -3.2444023e-05 0.01537393 0.013173043 0.013868773 -0.007894436 -0.036068026
0.012937667 0.03490198 0.032317583 -0.0007097315 -0.031566344 -0.008724167 0.011623432 0.04831536
0.015331391 -0.016681269 -0.0725145 -0.02425151 0.00069175794 -0.046353657 0.0143418815 -0.004917008
0.021750955 0.010893623 -0.0054898993 -0.059060425 0.003987471 0.011405223 0.009224516 -0.004418755
-0.030512532 0.02701009 0.0014706823 0.017673194 -0.007413759 0.016185213 0.010282795 0.026413094
0.029034002 0.014585376 0.0027814584 0.0016041825 -0.009954171 -0.00810042 -0.03417706 -0.004725055

layers.0.b f4 [64]
00000000: b9cd 7e3f 5e04 823f 0cc1 813f 6374 823f
00000010: bacb 813f 16e9 7f3f 6882 813f 9a81 803f
00000020: 0fda 813f f5db 7e3f c4e5 803f 150e 833f
00000030: a601 803f cf09 823f ac07 803f b44a 833f
00000040: b38b 7b3f 2639 823f bc42 813f aee6 813f
00000050: 2bab 803f ff7c 823f d837 813f 2b08 823f
00000060: 8d3d 803f 1278 823f 3642 813f 2e53 7e3f
00000070: aa0e 823f 2d68 823f e61b 803f 2676 803f
00000080: 6563 803f b56a 803f e997 813f 2f4e 7f3f
00000090: 33bb 813f 0cc1 803f c123 7e3f 0b24 803f
000000a0: 6dba 803f 6150 833f 86b1 803f d823 813f
000000b0: fa0b 813f 4df1 7c3f 606e 813f 975d 813f
000000c0: f40e 813f ba84 803f 6479 803f 280a 823f
000000d0: ba09 813f fade 7e3f fa65 813f f43c 7c3f
000000e0: c9b8 7f3f 4513 813f 7d53 813f 59c0 803f
000000f0: c699 833f 72ce 823f 628f 813f 7051 813f
0.9953266 1.0157583 1.0137038 1.0191768 1.0140297 0.99965036 1.0117922 1.0039551
1.0144671 0.9955438 1.0070119 1.0238672 1.0000503 1.0159243 1.0002341 1.0257173
0.9826004 1.017369 1.0098491 1.0148523 1.0052236 1.0194396 1.0095167 1.0158743
1.0018784 1.0192893 1.0098331 0.9934567 1.0160725 1.0188042 1.0008514 1.0036056
1.0030333 1.0032564 1.0124484 0.99728674 1.0135254 1.0058913 0.99273306 1.0011
1.0056893 1.0258905 1.0054176 1.0089064 1.008178 0.98805696 1.0111809 1.0106686
1.0082688 1.0040505 1.0037045 1.015935 1.0081093 0.99558985 1.0109246 0.9853051
0.99891335 1.0084006 1.0103604 1.00587 1.0281303 1.0219252 1.0121882 1.0102978

layers.1.w f4 [64, 64, 4, 3]
00000000: 363a 9bbb 56ed 22bc 7d30 36bb bde5 5abb
00000010: 4c41 cfbb 7c0d b3ba 0e37 d6bb 7ff7 23bc
00000020: 8ab4 16bb aaa3 98bb 38db 52bc 312c 2abb
00000030: 7e4f 183c aa1b 053c d846 1fbb 79a6 b33b
00000040: baea 3a3b cde5 ccba 2e89 38bb 1a94 fb3b
00000050: 539b 823b a01a 573b 5712 133c 5482 2d3b
00000060: 27c0 be3b 4d43 1e3c 063f e53b cd5c 76bb
00000070: 3329 533c d776 403b 84c4 3cba 5bac d239
00000080: 6409 e23b ffa8 76bb 0912 763b 12ad 023c
00000090: a543 893a c669 a9bb 39dd a3bb 95bd c8b8
000000a0: 0a8c e9bb 01c2 84ba 4c24 df3b 7bdf 45ba
000000b0: 55fc 61bc 913d a73b fb0c d4bb d404 bcbb
000000c0: e61d 143b 28f7 52bb f977 8e3b 8d83 c0bb
000000d0: bf8a f7bb 3331 603b 9b9d 6e3b 63b5 633b
000000e0: 8e73 a93a d025 b93a a1ab d2bb 1583 9cbb
000000f0: 48df 503b 93af 473b 0ba6 b33a ee9b 103b
00000100: 2537 4aba 0b86 453b dad3 c138 3cce 7c3a
00000110: b56e 453b fd0e 03bb c20f c7ba 09e8 4b3b
00000120: 124c 213c 7523 583b c5aa ceb9 642b 1f3c
00000130: ce75 303c e31f 39bc 46fc 8e3b 4f4e 703b
00000140: 707a 83bb 0884 8b3b 82c3 1a3c 7a47 88b8
00000150: 2808 d33b 26fb 893c 6be1 313c 5469 143c
00000160: 7505 823c 5ad1 443b f14e 9c3b ec06 5b3c
00000170: 4696 713b 5695 883c 6758 023d 5d9c d0ba
00000180: cb72 1c3b 56fd 7cbb 6385 f4bb b00c e6b9
00000190: 8a9b 0339 5378 aebb a7ea f5bb 66e4 e0ba
000001a0: d806 003b 63a1 afbb 245a 19bc 8b82 e539
000001b0: 261b e9b9 6415 523b 9e39 9eba fc46 853a
000001c0: 867b b63b 3c3d cfba 365f 2aba 2526 003c
000001d0: 0b07 9dbb 11cb 8a3a 2a8d 8c3a 245c a6bb
000001e0: 6bb3 b3ba 284c 0bbb 8b96 babb 72fd 80bb
000001f0: c6e8 b8bb 2229 a8ba 1c5a b9bb 6cc9 b0bb
00000200: 835b cebb 1854 82ba 2193 82bb 1405 d3bb
00000210: 994d eabb 0833 62bb 35f8 93bb 8f9e cfbb
00000220: 0f99 a438 934f 2c3b 3ee8 ce3b df6c 87bb
00000230: 7c91 bfbb aa8b d0bb 8d8a 34bc 744e bfbb
00000240: 8249 d13b 3795 933b 0884 f93b 9ede 563b
00000250: 90be e33b cdfe 9c3c 58cd f83b a011 1a3c
00000260: 5fac 623c c430 87bb 9152 ea3b 97c8 923c
00000270: 9555 ecbb 8abf 2cbc 9158 2b3c 1093 17bc
00000280: 6fc9 0ebc 32ca 393b 2044 b3ba c5ba 80bb
00000290: 7dd2 793b 2e4b 65bb 318a c8ba 02af 013c
000002a0: 88cd 8bbb ea60 343b 02b2 783b 3305 2fbb
000002b0: 7e11 943b 9709 173c 79e2 c9ba b4c2 c83b
000002c0: 9590 15bb 8319 de3b dd5d aa3a 937e dcba
000002d0: b801 833c 6ea2 dcba 4750 68ba 6055 b23b
000002e0: 4916 ef3b fae1 03bb 42fe cb3b 3f65 0cbc
000002f0: 4b1e 6639 737a bd3b 6a98 a33b b874 573b
00000300: 18fe 8abb cd4c a73a 8244 06bb 4c6d 803b
00000310: 5875 5b3a fe48 c23b b811 3cbb 8468 1b3b
00000320: 1039 94ba 141a c5ba 163a cd3b 5950 52bb
00000330: 8caa cebb b7fa f4bb ed9a c83b 78f7 39bb
00000340: 2bee adbb 3d93 cbba 49c6 8fbb 1abf 28bc
00000350: 67d2 e6ba 7115 fcba f244 e1bb 6df7 32bc
00000360: caf8 9abb 2436 283c e602 c43b 7432 083c
00000370: e18e 0f3b 997e 1e3c c4d5 0fbc 5ce2 bb3b
00000380: 8452 f23b d369 3fba f4f5 363c 7e73 0c3c
00000390: e1be 003c f1ba 99bb 8367 0dbb f804 eb37
000003a0: de4a 943b 8603 ca3b c5ec 2bbb 5e3f 87bb
000003b0: 1c39 03bc 63c0 dd3a ee7d adba 6e44 253c
000003c0: b43d 1e3b 4d64 033b f823 7ebb 40f1 a2bb
000003d0: 1c5b e83a d398 17bb e887 9a39 c243 86bb
000003e0: ce8d 023b 7b54 a7ba ab7c 58bc 3c68 42bb
000003f0: 83d3 6bbb 2b11 f4bb eb6f 20bb 94d1 f4ba
-0.004737164 -0.009944281 -0.0027799897 -0.0033401095 -0.0063249227 -0.0013660635 -0.0065373247 -0.010007738
-0.0022995793 -0.004658182 -0.012869649 -0.0025966282 0.009296296 0.008124271 -0.00243037 0.0054824916
0.0028521256 -0.0015632451 -0.0028157937 0.007677567 0.0039858012 0.0032822266 0.0089765405 0.0026475387
0.005821246 0.0096596 0.0069960384 -0.0037591935 0.012888241 0.002936771 -0.0007200914 0.00040182736
0.006898092 -0.003763735 0.003754737 0.0079758335 0.001047243 -0.00517008 -0.005000737 -9.5720556e-05
-0.0071272897 -0.0010128618 0.006809747 -0.0007548255 -0.013793071 0.005103775 -0.006471274 -0.0057378802
0.0022600829 -0.0032190774 0.004347798 -0.005875057 -0.0075543816 0.0034209013 0.0036409858 0.0034745566
0.0012928115 0.0014125649 -0.006429151 -0.0047763684 0.0031871367 0.003046964 0.0013706101 0.0022065598
-0.00077139057 0.003013971 9.2424176e-05 0.00096437684 0.00301258 -0.0019997947 -0.0015187191 0.0031113646
0.009844797 0.0032980118 -0.00039418615 0.009714935 0.010770274 -0.011299106 0.0043635694 0.003666777
-0.0040123984 0.0042576827 0.009446027 -6.498299e-05 0.0064401813 0.01684339 0.0108569665 0.009058315
0.015871743 0.003003201 0.0047701527 0.0133683495 0.0036863252 0.016672771 0.03182259 -0.001591574
0.0023872133 -0.0038603148 -0.00746219 -0.00043878471 0.00012551076 -0.0053244024 -0.0075047794 -0.0017157912
0.001953533 -0.005359815 -0.00935987 0.00043775546 -0.0004446145 0.0032056207 -0.0012071615 0.001016825
0.0055689244 -0.0015811096 -0.0006499173 0.007821594 -0.0047920994 0.0010589083 0.0010723223 -0.005076902
-0.0013710087 -0.002125511 -0.0056942157 -0.003936463 -0.005642983 -0.0012829641 -0.005656494 -0.005395105
-0.00629753 -0.0009943275 -0.0039848243 -0.0064398143 -0.0071503636 -0.003451528 -0.0045156726 -0.0063360403
7.848639e-05 0.0026292547 0.0063143065 -0.0041328515 -0.0058462005 -0.0063643055 -0.011019361 -0.0058382098
0.0063869366 0.004503872 0.0076146163 0.0032786499 0.006950207 0.019164467 0.0075928383 0.009403616
0.013835042 -0.0041256864 0.007150956 0.017917914 -0.0072123506 -0.010543713 0.010458128 -0.009251371
-0.008715018 0.0028349278 -0.0013676919 -0.0039285147 0.0038119846 -0.0034987438 -0.0015299973 0.00791526
-0.0042664446 0.0027523586 0.0037947898 -0.002670598 0.004518687 0.009218595 -0.0015402577 0.006126726
-0.0022821773 0.0067779436 0.0012997944 -0.001682239 0.01599203 -0.0016833076 -0.000886206 0.0054423064
0.007296358 -0.0020123706 0.0062253783 -0.008569061 0.00021945794 0.0057824193 0.0049925344 0.0032875966
-0.004241716 0.0012763977 -0.0020487611 0.003919279 0.00083716726 0.0059291115 -0.0028697085 0.002371342
-0.001130851 -0.0015037679 0.006263028 -0.0032091348 -0.006306952 -0.0074761766 0.006121984 -0.0028376263
-0.005307933 -0.0015531551 -0.004387651 -0.010299468 -0.0017610312 -0.0019232464 -0.006874674 -0.010923249
-0.004729365 0.010266814 0.005981791 0.00831281 0.002190523 0.009673738 -0.008778993 0.0057337712
0.0073950905 -0.0007301841 0.011167038 0.008572457 0.007858009 -0.0046914746 -0.002157659 2.8016497e-05
0.0045255264 0.006164971 -0.0026233655 -0.004127427 -0.008009221 0.0016918298 -0.0013236383 0.010087116
0.0024145665 0.0020048798 -0.0038778763 -0.004972607 0.0017727348 -0.0023131862 0.00029474427 -0.004097433
0.0019920948 -0.0012766266 -0.013213317 -0.002966418 -0.0035984225 -0.0074483356 -0.002448077 -0.0018678182

layers.1.b f4 [64]
00000000: 444b 813f c01f 7f3f 1c4d 803f 83ff 7f3f
00000010: 29fa 7c3f 6f66 7b3f bda5 7f3f 055c 813f
00000020: 8ed9 813f 2a31 803f f540 813f ff53 7f3f
00000030: 6762 7e3f 4a7c 803f 20f1 833f d04f 813f
00000040: ded7 803f 94a0 813f 9b28 813f 112e 813f
00000050: 34e6 803f 7d9e 813f 9628 7d3f 4b7f 823f
00000060: 1eb4 7a3f 80ae 803f c861 803f ecaa 793f
00000070: cd1b 803f 22bd 813f dfa9 823f a215 823f
00000080: 2673 823f 2991 7a3f b753 823f b554 7f3f
00000090: 71b2 803f 67c9 7f3f f5b7 7c3f 17db 803f
000000a0: b0ed 803f 7343 823f 0e07 7d3f d77f 823f
000000b0: cbe7 813f 6015 7f3f 1e7c 803f ad53 7f3f
000000c0: b2d3 813f 9d45 7d3f 3cda 7f3f 568d 813f
000000d0: 3729 7e3f 459a 7e3f cb3a 7d3f 2638 803f
000000e0: f627 803f ea0b 803f cc96 803f a53a 803f
000000f0: 1445 803f 9ca0 823f fb2f 803f bf5b 803f
1.0101094 0.9965782 1.0023532 0.99999255 0.98819214 0.98203176 0.9986227 1.0106207
1.0144517 1.0015004 1.0097948 0.9973754 0.993689 1.003793 1.030796 1.0102482
1.0065877 1.012713 1.0090517 1.0092183 1.0070252 1.0126492 0.98890054 1.0195097
0.97931087 1.0053253 1.002984 0.9752643 1.0008484 1.0135844 1.020809 1.0162852
1.019139 0.97877747 1.0181798 0.9973863 1.0054456 0.9991669 0.98718196 1.0066861
1.0072536 1.0176834 0.9883889 1.0195264 1.0148863 0.9964199 1.0037878 0.99737054
1.0142729 0.98934346 0.99942374 1.0121257 0.9928164 0.99454147 0.98917836 1.0017135
1.0012195 1.0003636 1.004602 1.0017897 1.0021081 1.0205264 1.0014642 1.0027999

layers.2.w f4 [3328, 10]
00000000: 1abc 703b b31b fdbb f486 ea3b 70e4 863b
00000010: 2035 27bb 2ec8 19bb c829 07bc baff 7f3a
00000020: 62fc 72bb e32c 463a 76e7 1cbb cc00 3abb
00000030: edac 173c 03a4 653b ea30 30ba 3b07 70bb
00000040: 4527 e3ba c5b9 6d3a 92d9 dbba a980 96ba
00000050: 5a85 2a3b 818d abbb b3ec f73b b213 493b
00000060: d38a 98bb e8ab 133b 826a b7ba 5011 debb
00000070: 1467 053b 2b42 2c3b fc38 a43b 4969 a2bb
00000080: b6eb 9d3b 1734 a1ba ecc6 b9b8 aa61 0cbb
00000090: e332 1fba 2a39 09bb 9738 6239 882b 243b
000000a0: 4b62 bbbb 2678 093b c763 3db9 54de 8fbb
000000b0: 4b4a 2c3b 8c3d 8cbb a8f0 463b 85fe 4eb9
000000c0: d759 a3ba a7e9 993b 0148 51ba 31f2 92bb
000000d0: 30a9 763b 8226 96bb 0f44 b0b8 306d f2ba
000000e0: 095c d93a 8623 81b9 0f13 343b 4954 843b
000000f0: 7278 abb9 2602 b8ba c1af b83a f5dc 2dbb
00000100: 3f89 91ba 5ce6 dabb af2a 0e3b 93a9 16bb
00000110: 85ad 92ba ee7c c63a fabf 1c3c 974d 12bb
00000120: 83ea 8dbb 8dc6 79ba 7a2b beba e0e7 9fba
00000130: 6d7f 4d3b 969f 49bb e4c7 eeba 20e2 7d3a
00000140: 1d4b 1c3b cb15 d2ba 1a28 7938 d35e fbba
00000150: 4f63 57bb 07b8 bcba a45f 023b 759e caba
00000160: 3519 613b 6eef adba 370d c93b a93b 6f3a
00000170: 3d60 1cbb aff2 5cb9 79a2 e1bb 0da8 9fba
00000180: e5a6 b33a 1b08 4e38 e079 80b9 b3e4 96bb
00000190: 3ce4 3b3b 6149 93ba 69e9 97bb 5c80 a2ba
000001a0: 31e0 c8bb d1fc 8b3a b762 c4b8 e94a e6ba
000001b0: d4a0 dfb8 102d 55bb 5157 bab9 1635 23bb
000001c0: 9197 423b e69a 9bb8 b781 83bb b55c 1c3b
000001d0: 37ab be3a 4632 91bb c174 333b 29ca 64bb
000001e0: cee7 c33b 516d 3e3a 5d67 7dbb e824 b1ba
000001f0: c201 b0bb 4cf7 8c3b 0449 ab3a 776e 90bb
00000200: e3ea 173a 08d2 35bb 8dd1 063b dfec 7b39
00000210: dc73 383b 689f 4338 a624 a5bb 53ef 803b
00000220: bb39 20b8 6369 acb9 e38d 713b e9fd fdba
00000230: 06d6 b2ba 30fc 9cba 9315 f3ba 0d05 353a
00000240: b00b afbb 1f40 023c aee6 edba 683a 4e39
00000250: 3c7e 693b 912a 89bb 1e4a 793b ed17 a5ba
00000260: fb09 21bb 0aa6 fdb9 e303 96bb 7066 6c3b
00000270: 9e13 0dbb ab7b c2bb 7d0a c13a 750e 6bba
00000280: de0b 84ba 8e2f 2bbb db34 283b 4a9b 443a
00000290: 2635 9fbb 3ef8 9f3b 190d 05bb 882a 51bb
000002a0: 21c4 873b 8728 36bb 664e 103a df10 693a
000002b0: 06a8 b23a b797 263b 75c0 92bb 60b8 62bb
000002c0: 739e 1e3a 542b 45bb 7059 0c3b 74d1 7bbb
000002d0: 9a71 243b b125 b8ba f099 8a3b 5ee4 b1ba
000002e0: fb40 4abb 6157 a2ba c968 42bb 9f87 caba
000002f0: df2b 44b9 0a3f 62bb 6017 ec3b 6c44 6fba
00000300: edc9 d03b 9a62 0f3a 558c 7bbb b872 063b
00000310: b4a2 91bb 3c25 db3a f337 07ba 03f9 2abb
00000320: 048d 95b9 75e1 9cba 3204 aa3b 4360 bc3a
00000330: 0a3c 6bbb 7128 b0ba f141 61bb faf4 61bb
00000340: 029f 1f3a 9ae5 62bb f081 003c 1f76 a2bb
00000350: 9b03 713b 614d 3b39 e45c 9bbb f4ce 92ba
00000360: c7ad 03bb 9128 293a 2454 1dba c6d3 1fbb
00000370: 7428 15ba 191a f9ba d471 843b 4ff7 f23a
00000380: 0b4a 06bb 27b7 cabb e164 7cbb 437b 20bb
00000390: a611 84b9 c5b1 aa39 7ea0 e53a 9331 90bb
000003a0: ebe4 a13b 602e 0f3b ef34 1b3b a6e9 8fbb
000003b0: 5f68 c6bb aa92 4fba f426 573a 93bf 1fbb
000003c0: 48f8 7fb9 07a8 1abb fc4f 573b 8841 6c3b
000003d0: fe35 6038 16e5 a7bb 87b7 21bb 70d9 063a
000003e0: 14a2 9a3a 1546 aeb9 197f 293b ab4f b3bb
000003f0: ade7 b6ba 803a ca3b 90d3 7bba 2127 98bb
0.003673321 -0.0077242493 0.007157201 0.0041165873 -0.0025513843 -0.0023465264 -0.0082497075 0.0009765584
-0.0037076701 0.0007559789 -0.0023941672 -0.0028381823 0.009257537 0.0035040386 -0.0006721156 -0.0036625403
-0.0017330429 0.00090685143 -0.0016773215 -0.0011482436 0.0026019425 -0.0052353744 0.0075660585 0.0030681905
-0.004655221 0.0022532884 -0.0013993534 -0.006776966 0.0020355629 0.0026284556 0.005011676 -0.0049563986
0.0048193587 -0.0012298849 -8.8585395e-05 -0.0021420517 -0.00060729514 -0.0020938613 0.00021574121 0.002505036
-0.0057185045 0.0020976155 -0.00018061615 -0.0043905172 0.00262894 -0.004279798 0.0030355845 -0.00019740507
-0.0012462687 0.004697043 -0.00079834467 -0.004484438 0.0037637465 -0.004582227 -8.405011e-05 -0.0018495675
0.0016583215 -0.00024631264 0.002747718 0.004038368 -0.000327054 -0.0014038726 0.0014090465 -0.0026529406
-0.0011103525 -0.006680293 0.0021692922 -0.0022989258 -0.0011190629 0.0015143433 0.009567255 -0.002232408
-0.0043309345 -0.00095281826 -0.0014508807 -0.0012199841 0.003135647 -0.0030765287 -0.0018217531 0.00096848793
0.0023848482 -0.0016028223 5.9403574e-05 -0.001917804 -0.003286559 -0.0014398106 0.0019893432 -0.0015458601
0.00343473 -0.0013270208 0.0061356085 0.00091260165 -0.0023861073 -0.00021071242 -0.0068858233 -0.001218082
0.0013706355 4.9121776e-05 -0.00024504866 -0.0046049 0.0028669974 -0.0011237079 -0.004635979 -0.0012397873
-0.0061302413 0.0010680204 -9.3643954e-05 -0.0017569932 -0.00010663425 -0.003252808 -0.0003554174 -0.0024903468
0.0029692391 -7.419828e-05 -0.004013266 0.0023858969 0.0014546876 -0.004431042 0.0027382823 -0.0034910536
0.005978561 0.0007264214 -0.0038666346 -0.0013515027 -0.0053713033 0.004301941 0.0013068025 -0.0044076997
0.0005795194 -0.0027743597 0.002057168 0.00024025467 0.002814523 4.664008e-05 -0.005039769 0.0039347797
-3.820074e-05 -0.00032884916 0.0036858253 -0.0019378039 -0.0013644106 -0.0011977013 -0.0018545858 0.00069053547
-0.0053419694 0.007949858 -0.0018150413 0.00019667449 0.003562822 -0.0041859825 0.0038038562 -0.0012595631
-0.00245726 -0.0004837963 -0.0045781 0.00360718 -0.0021526585 -0.0059351525 0.0014727857 -0.0008966693
-0.0010074337 -0.0026120874 0.002566627 0.00074999465 -0.0048586307 0.0048818877 -0.0020301996 -0.003191622
0.0041432534 -0.0027795152 0.00055048463 0.00088907586 0.0013630397 0.002542002 -0.004478509 -0.003459476
0.00060508325 -0.003008564 0.0021415614 -0.0038424404 0.0025092126 -0.0014049319 0.0042297766 -0.0013572087
-0.0030861485 -0.001238566 -0.0029664508 -0.0015451795 -0.0001870836 -0.0034522437 0.007204935 -0.0009127322
0.0063717277 0.000546971 -0.0038383205 0.0020515155 -0.0044444446 0.0016719471 -0.00051581784 -0.0026088364
-0.0002852456 -0.0011969047 0.0051884884 0.001437195 -0.003589394 -0.0013439787 -0.003437158 -0.0034478293
0.00060890627 -0.0034621716 0.0078434795 -0.004957929 0.003677583 0.00017862536 -0.004741298 -0.0011200593
-0.0020092593 0.0006452883 -0.00060016126 -0.0024387701 -0.0005689927 -0.001900497 0.0040418897 0.0018536838
-0.002049091 -0.0061863842 -0.0038512277 -0.0024487532 -0.0002519015 0.00032557375 0.0017519144 -0.004400441
0.004940619 0.002184771 0.0023682674 -0.0043918667 -0.0060549225 -0.0007918278 0.00082074036 -0.0024375662
-0.00024411187 -0.0023598687 0.003285407 0.0036049802 5.3456046e-05 -0.0051237447 -0.0024676041 0.0005144095
0.0011797571 -0.0003324008 0.002586311 -0.0054721436 -0.0013954543 0.0061715245 -0.00096064154 -0.0046433364

layers.2.b f4 [10]
00000000: d197 7b3f ed60 823f 3c46 7d3f 620d 7e3f
00000010: af0d 813f d8c5 7c3f 3c00 813f 0231 803f
00000020: 2b53 7d3f 3f63 813f
0.9827853 1.0185829 0.98935294 0.9923917 1.0082301 0.98739386 1.0078197 1.0014956
0.9895503 1.0108413
